parameters/best_model_64_3_0.00010110731945646.pth (torch, 381412 bytes, 14 tensors)

lstm_net.0.xh.weight f4 [256, 40]
-0.116233155 0.008601704 0.057929408 0.034242682 0.096994124 0.0011832512 0.045311075 -0.10763368
0.06873694 0.099652044 -0.06604018 -0.0805462 -0.102976866 -0.12134292 -0.0030783978 0.06353551
0.052001026 -0.06368985 0.059888445 0.06986605 0.034655303 -0.08079274 -0.12108938 0.033819396
0.048104107 -0.08882019 0.055489272 0.003095314 -0.12254754 -0.015124947 -0.061704844 -0.009304002
0.04327795 -0.054001346 -0.08960602 -0.09545198 -0.096315205 0.10422596 0.104648516 -0.110486194
-0.03544752 -0.10644147 0.03677943 -0.042014617 -0.025958594 0.095346116 0.11803323 -0.11787203
0.07232693 0.004001906 -0.104618 0.02758014 0.0743288 0.052271303 0.07381434 -0.031310063
-0.1281586 -0.12579156 0.068662636 -0.05808389 -0.018182429 0.032651618 -0.12325069 0.056895282
0.0031197348 0.09820938 -0.091079935 0.08750631 -0.10299759 -0.09413437 0.08621277 -0.11514148
-0.07547593 -0.0063524395 -0.031318635 0.021360025 -0.0738768 -0.019680008 0.038197458 0.026575655
-0.009680874 0.054766256 0.109531075 -0.10484267 0.0012986137 -0.0052470807 -0.057997026 -0.060367968
0.10547573 -0.008013512 0.07828728 -0.04268494 -0.111586 -0.06721705 0.0028733618 0.09593775
0.083551966 0.07879814 0.04459287 0.056655303 0.019532537 0.10727999 -0.020201888 -0.014189614
0.0544043 -0.028977362 0.07090815 0.0706542 0.08698299 0.094980195 0.055227466 0.056102097
0.082237735 0.087368056 0.0007726848 -0.03646429 0.030877277 0.120930865 0.0152974725 -0.009164691
0.105070435 -0.076369464 0.006378803 -0.10366675 0.115859866 0.044416253 -0.017895067 -0.10306298
-0.08604066 -0.04589782 -0.08646971 0.07183213 0.12141957 -0.11172514 -0.09868473 0.049863886
0.08324774 -0.04747617 0.003107404 0.09781432 -0.0019073319 0.059485752 -0.12040055 -0.025322836
0.09069549 -0.020126082 -0.08603424 -0.1182266 -0.04797259 -0.06874277 -0.08279708 -0.047194988
-0.08251311 -0.017063633 -0.121231094 0.03205815 0.11691868 0.08310534 0.02339679 -0.023761883
-0.04167571 0.06544931 -0.103308246 0.06317622 -0.019909317 0.025482494 -0.043593485 -0.02406901
0.060836866 0.06401874 -0.031017765 -0.09476172 -0.08420435 -0.028584575 0.041681204 -0.05675675
-0.10770588 -0.10932095 -0.06084672 -0.113195546 -0.036602244 0.06289421 0.018775774 -0.06074016
-0.05384549 -0.119028084 0.08327296 0.060338467 0.066983745 -0.05282846 0.06743394 0.069913626
-0.04202506 -0.08066362 0.09487517 -0.015703782 0.07369891 0.011479959 0.007925972 -0.076762974
0.10916511 0.048712023 -0.034495756 0.05770871 0.07730508 0.024426643 -0.05400351 -0.07077199
-0.001375035 -0.013683294 -0.019559376 0.04138167 0.0055576665 0.01684815 0.03881229 0.06728634
0.100607716 0.1072789 0.05448526 0.04223063 -0.033937 0.043220416 -0.008932998 0.08576238
-0.07285853 -0.063266456 0.05476902 0.12506658 0.021199197 0.018783897 0.05780059 0.0066788346
0.081495985 0.081701756 0.092399776 0.10006626 -0.00558722 0.10006225 -0.063856974 -0.10539512
0.04599452 0.0748831 -0.11526901 -0.1039721 0.0031306383 -0.052967966 -0.000705247 -0.06051195
0.07688208 0.062172785 -0.008090396 -0.045259148 0.07393378 0.11387018 0.06608279 -0.057737898
00000000: a60b eebd 29ee 0c3c 6347 6d3d 0e42 0c3d
00000010: dba4 c63d 5217 9b3a 1b98 393d 0c6f dcbd
00000020: f4c5 8c3d 5f16 cc3d 1340 87bd 68f5 a4bd
00000030: 89e5 d2bd a382 f8bd f2be 49bb e81e 823d
00000040: 07ff 543d d36f 82bd 964d 753d ee15 8f3d
00000050: b8f2 0d3d aa76 a5bd b5fd f7bd 3586 0a3d
00000060: d008 453d 5ce7 b5bd b848 633d c0da 4a3b
00000070: 34fa fabd a0ce 77bc 38be 7cbd d06f 18bc
00000080: 3844 313d 8430 5dbd 5c83 b7bd 547c c3bd
00000090: e840 c5bd 6c74 d53d f651 d63d 9646 e2bd
000000a0: 6b31 11bd fcfd d9bd 07a6 163d 8517 2cbd
000000b0: 1ea7 d4bc d344 c33d 68bb f13d e466 f1bd
000000c0: 2420 943d 6c22 833b f641 d6bd bfef e13c
000000d0: b339 983d 6f1a 563d f92b 973d fb3e 00bd
000000e0: 023c 03be 81cf 00be ff9e 8c3d 5fe9 6dbd
000000f0: 51f3 94bc b4bd 053d dc6a fcbd 070b 693d
00000100: 7774 4c3b 0022 c93d 1e88 babd 8236 b33d
00000110: 67f0 d2bd 85c9 c0bd 5290 b03d 4ccf ebbd
00000120: 2093 9abd 2028 d0bb f847 00bd 38fb ae3c
00000130: b84c 97bd f837 a1bc f074 1c3d 30b5 d93c
00000140: 879c 1ebc 9552 603d d451 e03d c1b7 d6bd
00000150: 3f36 aa3a b4ef abbb 4a8e 6dbd 6744 77bd
00000160: a903 d83d 1b4b 03bc 1555 a03d 67d6 2ebd
00000170: 3387 e4bd 18a9 89bd 034f 3c3b 037b c43d
00000180: 4b1d ab3d eb60 a13d 03a7 363d 640f 683d
00000190: b302 a03c 9db5 db3d 6e7e a5bc 8e7b 68bc
000001a0: 0bd7 5e3d ef61 edbc 4b38 913d 26b3 903d
000001b0: 2324 b23d fa84 c23d 3236 623d 50cb 653d
000001c0: 426c a83d 06ee b23d 008e 4a3a 945b 15bd
000001d0: 58f2 fc3c 9aaa f73d 40a2 7a3c 8027 16bc
000001e0: 2b2f d73d 9867 9cbd 4705 d13b 3c4f d4bd
000001f0: f047 ed3d d1ed 353d ad98 92bc af12 d3bd
00000200: 1636 b0bd 5aff 3bbd 0817 b1bd b91c 933d
00000210: d3aa f83d 26d0 e4bd 381b cabd 133e 4c3d
00000220: cb7d aa3d 5f76 42bd 97a5 4b3b e052 c83d
00000230: 70ff f9ba 55a7 733d 9094 f6bd d671 cfbc
00000240: 8fbe b93d 74df a4bc b832 b0bd ca20 f2bd
00000250: e87e 44bd 02c9 8cbd 8491 a9bd 884f 41bd
00000260: a2fc a8bd 08c9 8bbc 0248 f8bd 684f 033d
00000270: 1073 ef3d 2233 aa3d a0aa bf3c 48a8 c2bc
00000280: 26b4 2abd 4a0a 863d 4693 d3bd 8962 813d
00000290: dd18 a3bc aac0 d03c 158f 32bd 5f2c c5bc
000002a0: 1430 793d 421c 833d f818 febc 6f12 c2bd
000002b0: 5573 acbd 332a eabc e9b9 2a3d c479 68bd
000002c0: e794 dcbd aae3 dfbd 693a 79bd 11d3 e7bd
000002d0: 3cec 15bd aece 803d a7cf 993c adca 78bd
000002e0: 178d 5cbd ffc4 f3bd 038b aa3d 7825 773d
000002f0: c62e 893d a862 58bd ce1a 8a3d e02e 8f3d
00000300: 7822 2cbd f832 a5bd ea4d c23d 38a5 80bc
00000310: 74ef 963d 7016 3c3c f0db 013c e835 9dbd
00000320: f591 df3d 4286 473d 6c4b 0dbd f85f 6c3d
00000330: 2052 9e3d 621a c83c c932 5dbd e8f0 90bd
00000340: 853a b4ba e52f 60bc fc3a a0bc d37f 293d
00000350: 161d b63b 2205 8a3c a3f9 1e3d 6ccd 893d
00000360: 6b0b ce3d 0ab5 db3d f02b 5f3d 06fa 2c3d
00000370: 8601 0bbd e407 313d b65b 12bc 30a4 af3d
00000380: da36 95bd d891 81bd 7b55 603d 7411 003e
00000390: f0a9 ad3c b0e0 993c 50c0 6c3d 20da da3b
000003a0: 5ee7 a63d 4053 a73d 183c bd3d 8aef cc3d
000003b0: 0015 b7bb 70ed cc3d 72c7 82bd 66d9 d7bd
000003c0: c064 3c3d 505c 993d 2912 ecbd 53ef d4bd
000003d0: 652b 4d3b f0f4 58bd 53e0 38ba 61db 77bd
000003e0: 5a74 9d3d e4a8 7e3d 958d 04bc a861 39bd
000003f0: 986a 973d c534 e93d 6a56 873d 937e 6cbd

lstm_net.0.xh.bias f4 [256]
0.1049624 -0.004652278 -0.0919281 -0.013212071 -0.119644314 0.03532841 0.046253957 -0.115913376
-0.015468582 -0.06080587 -0.0044860775 0.023066312 0.08765892 0.11232878 -0.075180545 0.032833718
0.038031083 0.021204289 -0.029534178 -0.052910592 0.0036128804 -0.026395202 -0.08259592 0.09176504
0.013156562 -0.08279487 -0.0001853031 -0.02488235 0.11682892 -0.018032648 0.0005238089 -0.008683784
-0.031999797 0.042337846 -0.044529676 0.08627186 0.006783665 -0.048954967 0.041774623 -0.047243737
0.0050040516 -0.081260905 0.00041445368 -0.05264801 0.03770187 0.057801917 -0.11805302 -0.114622265
0.1226848 0.02549307 -0.009829476 0.09609929 0.065580815 -0.010906832 0.056716204 -0.013152595
-0.0009514179 -0.07104949 -0.118558176 -0.042431764 0.014189857 0.031445615 -0.06918431 -0.07579473
0.10703069 -0.11562642 0.06728134 -0.085655674 -0.04444918 0.036733 0.05291302 -0.04673713
0.08265764 -0.011813899 0.0026316335 0.10763864 -0.060320735 -0.07357694 -0.05642742 0.087203
0.07373861 -0.0018526736 0.11580245 0.06740992 0.082867175 0.011796512 -0.084167615 0.03366732
0.022681097 0.111339636 0.06473753 -0.05690496 0.039232057 -0.090068474 -0.083135396 -0.063897915
0.124429666 -0.08338627 -0.055555154 0.122570455 -0.102787964 0.072961144 -0.05386019 0.008253276
0.07175529 -0.08373479 0.03842487 0.08695963 -0.080595404 0.030148722 -0.11012595 0.070084564
-0.109449044 -0.07843907 -0.011737424 -0.034416176 -0.05181829 0.025681615 0.10059407 0.08066457
-0.063370086 0.0798123 -0.080194436 -0.087909326 -0.11032355 0.037992742 -0.0811502 -0.11868859
0.030734284 0.1189658 0.012223546 -0.052843224 0.025173262 -0.097376786 -0.084679164 0.021916674
0.051801752 -0.011004114 -0.030683875 0.11958432 0.00019835446 -0.08830792 -0.021394167 0.047630455
-0.10791792 0.052062634 -0.12551975 0.060922593 -0.097137235 -0.09191112 0.053605452 0.10427156
0.022025881 -0.0024670805 0.08350953 -0.06348895 0.1062006 -0.0061616898 -0.0913764 0.0835957
-0.08053476 0.07088044 -0.01101996 0.050684325 -0.080259606 0.1102908 -0.081900276 -0.0137578305
0.064283475 -0.05821404 0.12165725 0.09274453 -0.059321117 0.09700615 0.04595911 -0.059660226
0.087183766 -0.0104046 -0.07895905 0.10999128 0.05854815 -0.049868725 0.027658641 0.023294035
-0.115157425 0.07800365 0.025949216 0.09194061 -0.007883146 0.07877994 -0.10295382 -0.06821858
-0.0065169698 -0.0163812 -0.04543117 -0.09349847 -0.035001934 0.08867716 0.12957196 0.020636242
0.06115529 0.08530183 -0.06243177 0.023808282 -0.026312487 -0.023469113 -0.064102076 0.06990099
-0.07098755 -0.08231246 -0.06130863 0.06593592 0.021898812 -0.09276881 0.022476032 -0.096371196
0.013537218 -0.004486016 0.017156491 0.108343795 0.05916813 -0.060463447 -0.061865218 0.059891276
-0.07561599 0.032481454 -0.043556303 -0.027756019 -0.034210104 0.030045846 -0.011874159 -0.022335809
-0.01702131 0.118749015 0.054738548 0.0994878 0.023369819 -0.065556206 0.02090846 0.0781306
0.09332214 0.054001115 -0.03560648 0.055509727 0.022285342 0.018921072 -0.043901905 0.022030232
-0.100232065 -0.0153531 0.10423392 0.06653013 -0.08473042 0.0059461007 0.0873549 -0.021059332
00000000: 87f6 d63d 2372 98bb cd44 bcbd 7177 58bc
00000010: 1408 f5bd 86b4 103d ca74 3d3d fe63 edbd
00000020: ef6f 7dbc 930f 79bd f2ff 92bb 90f5 bc3c
00000030: 8586 b33d a20c e63d 42f8 99bd a67c 063d
00000040: 7bc6 1b3d 9eb4 ad3c a9f1 f1bc c7b8 58bd
00000050: 13c6 6c3b c03a d8bc 0d28 a9bd 4fef bb3d
00000060: 9f8e 573c 5b90 a9bd ec4d 42b9 12d6 cbbc
00000070: 0044 ef3d 34b9 93bc 3850 093a 6e46 0ebc
00000080: 3812 03bd 736a 2d3d c064 36bd 4daf b03d
00000090: 8249 de3b 0185 48bd de1b 2b3d a682 41bd
000000a0: 07f9 a33b 1e6c a6bd 084b d939 71a5 57bd
000000b0: 476d 1a3d b4c1 6c3d c8c5 f1bd 14bf eabd
000000c0: 2b42 fb3d d8d6 d03c cf0b 21bc b4cf c43d
000000d0: 3c4f 863d 92b2 32bc 404f 683d fb7d 57bc
000000e0: 9368 79ba 6582 91bd a1ce f2bd eecc 2dbd
000000f0: 937c 683c 1ecd 003d 81b0 8dbd 443a 9bbd
00000100: e832 db3d 8bcd ecbd cdca 893d 3e6c afbd
00000110: 5810 36bd 5875 163d 53bb 583d 6f6f 3fbd
00000120: 6948 a93d 158f 41bc 7c77 2c3b a671 dc3d
00000130: e012 77bd 82af 96bd 7020 67bd 7d97 b23d
00000140: 4504 973d 69d5 f2ba d629 ed3d 360e 8a3d
00000150: 44b6 a93d 2846 413c 1260 acbd bee6 093d
00000160: b5cd b93c 0906 e43d 1c95 843d 2d15 69bd
00000170: cbb1 203d d275 b8bd e442 aabd e9dc 82bd
00000180: fbd4 fe3d 6cc6 aabd cd8d 63bd 3806 fb3d
00000190: 7f82 d2bd a76c 953d 819c 5cbd c038 073c
000001a0: 70f4 923d 257d abbd 6663 1d3d e417 b23d
000001b0: 340f a5bd 74fa f63c b789 e1bd 7f88 8f3d
000001c0: d226 e0bd aaa4 a0bd 534e 40bc faf7 0cbd
000001d0: 6a3f 54bd 4062 d23c 4404 ce3d 7733 a53d
000001e0: 2dc8 81bd a274 a33d fb3c a4bd ce09 b4bd
000001f0: 50f1 e1bd 479e 1b3d 1332 a6bd 0113 f3bd
00000200: 77c6 fb3c 57a4 f33d 4545 483c 2372 58bd
00000210: 2838 ce3c 7b6d c7bd 456c adbd 998a b33c
00000220: 132e 543d 994a 34bc c05c fbbc a0e8 f43d
00000230: 5ffd 4f39 c8da b4bd d242 afbc 2718 433d
00000240: 1204 ddbd a13f 553d 4088 00be f889 793d
00000250: e3ef c6bd e63b bcbd 6491 5b3d 548c d53d
00000260: 9f6f b43c beae 21bb 0b07 ab3d 7f06 82bd
00000270: b37f d93d 00e8 c9bb 8d23 bbbd 3934 ab3d
00000280: 69ef a4bd c429 913d 108d 34bc 5e9a 4f3d
00000290: 265f a4bd 25e0 e13d 55bb a7bd 8668 61bc
000002a0: 0ea7 833d d871 6ebd 7027 f93d d8f0 bd3d
000002b0: b3fa 72bd 29ab c63d 9f3f 3c3d 485e 74bd
000002c0: 678d b23d 0e78 2abc 48b5 a1bd 1c43 e13d
000002d0: 2fd0 6f3d 2643 4cbd 6094 e23c 22d3 be3c
000002e0: a8d7 ebbd 61c0 9f3d 7393 d43c 5c4b bc3d
000002f0: 5028 01bc 6157 a13d 74d9 d2bd 2fb6 8bbd
00000300: 4e8c d5bb de31 86bc 0916 3abd 207c bfbd
00000310: 305e 0fbd 5f9c b53d 83ae 043e 560d a93c
00000320: f87d 7a3d bab2 ae3d 75b8 7fbd 9609 c33c
00000330: 498d d7bc 4c42 c0bc f347 83bd 4028 8f3d
00000340: ec61 91bd 6f93 a8bd c21e 7bbd 6909 873d
00000350: 2365 b33c 93fd bdbd a81f b83c 435e c5bd
00000360: 35cb 5d3c 6eff 92bb c58b 8c3c 5ae3 dd3d
00000370: 485a 723d 85a8 77bd 6266 7dbd 8e50 753d
00000380: 8edc 9abd 460b 053d 1868 32bd 9760 e3bc
00000390: e51f 0cbd b522 f63c d58b 42bc 96f9 b6bc
000003a0: 4670 8bbc af32 f33d 8735 603d 42c0 cb3d
000003b0: 1072 bf3c 5542 86bd 3848 ab3c f002 a03d
000003c0: ae1f bf3d 4630 5d3d 1ad8 11bd 2b5e 633d
000003d0: c08f b63c 5d00 9b3c 7cd2 33bd bf78 b43c
000003e0: 7846 cdbd 928b 7bbc 9878 d53d f340 883d
000003f0: 2487 adbd 82d7 c23b 20e7 b23d 9f84 acbc

lstm_net.0.hh.weight f4 [256, 64]
0.015301168 -0.10440667 -0.122323185 0.05229391 -0.10321982 0.09680371 0.015241846 -0.048315704
0.02538988 0.0567078 -0.06972788 -0.036473915 -0.111970305 0.10928421 0.089551404 -0.114945516
-0.056293473 -0.0005531013 0.027728245 -0.023578256 -0.0088888705 -0.07898188 0.100785926 0.07488638
0.08470152 -0.074174955 -0.09203197 0.018632129 0.10667987 0.014634013 -0.11109224 -0.07947031
0.124588445 -0.098746985 -0.07696678 0.03769587 -0.07113765 0.028065175 -0.041852385 -0.111586496
0.027154282 0.047985703 0.12425463 -0.059597954 -0.054513633 -0.027798504 -0.04296346 -0.021514043
-0.08973548 -0.10997486 0.006808758 -0.111697525 0.0693723 0.017142102 -0.07170305 -0.07996966
-0.0054555684 -0.014082611 0.05875966 0.017588899 0.11109719 0.05833225 -0.08198699 0.004377857
-0.046432734 0.064455226 0.0036547333 -0.028991789 -0.010182932 0.11294235 0.111128375 0.025121957
-0.0758643 -0.004861951 -0.07254648 -0.11817482 -0.02179338 0.11362475 0.10823473 -0.10072765
-0.08340953 0.055018336 -0.061640844 0.03380017 -0.045669317 0.086177915 -0.048036307 -0.040035293
-0.09239337 -0.00948523 0.044172212 0.11870319 -0.0703446 0.015259311 0.11940409 -0.074839786
-0.047576204 -0.011406869 -0.09445013 -0.0048217922 -0.12186076 0.10708147 -0.06601216 0.0719711
0.020036414 0.007304251 -0.0051733553 0.007580489 0.118159294 0.09788227 -0.029901743 -0.057923093
-0.025124952 -0.016327769 0.10440469 0.071119055 -0.118132934 0.11243045 0.09265602 -0.113776356
0.076408416 0.04805146 0.01581715 -0.07373506 0.058997497 -0.022386447 -0.013786763 -0.06490286
-0.043513626 0.058859646 -0.12041576 -0.1003101 0.029375702 0.10268843 0.076625496 0.006233901
0.086572394 0.122592166 0.08686705 0.058186397 -0.046255603 -0.11209996 0.0962998 0.07333633
-0.06387113 0.095050186 0.10301544 -0.054148614 -0.07232086 0.037262887 -0.04750073 -0.09088266
-0.021034688 0.09577821 0.12376249 -0.028569177 0.09865196 0.10533202 0.04149185 -0.0958959
0.004129261 -0.06266047 0.12281555 0.12386274 -0.09800093 0.072946265 -0.08650167 0.06267893
-0.0070593655 -0.07735494 0.078530505 0.049578547 -0.117630616 -0.12400927 0.10442802 0.0042368025
0.01793842 0.07610476 0.09554827 0.10202061 -0.076617524 0.10090713 0.05585362 0.056677982
-0.11094847 0.010488555 0.057370722 -0.02835682 0.122694746 -0.019474193 -0.024479702 -0.0006287247
0.114794895 -0.07643236 -0.013359711 -0.08057119 0.009326518 -0.09969154 0.115645304 -0.051698312
0.06735201 0.12362385 -0.05292207 0.08679424 0.112492815 -0.0062814206 -0.09563877 -0.06686625
-0.05453448 -0.059751615 -0.10380949 -0.031387612 -0.086746976 -0.07052724 0.073786214 0.06890689
0.122268856 0.027940199 0.05783473 0.06824285 -0.07910602 -0.06323381 -0.012197405 -0.03460507
0.034482986 -0.019600049 -0.0028538704 -0.05125749 0.07625805 -0.082702875 0.008111447 -0.062066898
0.07681276 0.074111834 0.09258659 -0.0016712695 -0.07464266 0.121213496 -0.11514756 -0.091732755
0.06941998 0.015155554 0.09305455 0.030731797 0.10870561 -0.008271933 -0.11642596 0.029668406
-0.11053757 -0.027117088 -0.08315444 0.084576026 0.015705004 -0.0043759644 0.06309155 0.05111301
00000000: c0b1 7a3c 2ad3 d5bd 9484 fabd 2432 563d
00000010: ea64 d3bd 0641 c63d f0b8 793c b0e6 45bd
00000020: 70fe cf3c 7046 683d 7ecd 8ebd ac65 15bd
00000030: b050 e5bd 66d0 df3d ba66 b73d 8e68 ebbd
00000040: fc93 66bd 00fe 10ba 5826 e33c 3027 c1bc
00000050: a0a2 11bc 40c1 a1bd da68 ce3d 085e 993d
00000060: fe77 ad3d 0ae9 97bd 427b bcbd 68a2 983c
00000070: fa7a da3d 80c3 6f3c 5484 e3bd 54c1 a2bd
00000080: 3a28 ff3d dc3b cabd c2a0 9dbd fc66 1a3d
00000090: 9eb0 91bd f0e8 e53c 686d 2bbd 7687 e4bd
000000a0: a872 de3c a88c 443d 3679 fe3d fc1c 74bd
000000b0: b049 5fbd b0b9 e3bc 74fa 2fbd 383e b0bc
000000c0: 3cc7 b7bd 803a e1bd 001c df3b acc1 e4bd
000000d0: 1013 8e3d 986d 8c3c 0cd9 92bd 22c7 a3bd
000000e0: a0c4 b2bb c0ba 66bc f8ad 703d 9816 903c
000000f0: ec86 e33d cced 6e3d cce8 a7bd 2074 8f3b
00000100: 4030 3ebd 1a01 843d 4084 6f3b 3080 edbc
00000110: 50d6 26bc 524e e73d 4697 e33d 90cc cd3c
00000120: be5e 9bbd 0051 9fbb 4093 94bd a405 f2bd
00000130: 0888 b2bc 18b4 e83d 2caa dd3d 4c4a cebd
00000140: 9ed2 aabd e85a 613d 1c7b 7cbd 0c72 0a3d
00000150: c00f 3bbd 0c7e b03d b8c1 44bd 0cfc 23bd
00000160: bc38 bdbd f067 1bbc eced 343d a81a f33d
00000170: d410 90bd 3002 7a3c 228a f43d 9a45 99bd
00000180: 44df 42bd e0e3 3abc 126f c1bd 2000 9ebb
00000190: 2292 f9bd 884d db3d 6231 87bd 9665 933d
000001a0: 6823 a43c 8058 ef3b 4085 a9bb c065 f83b
000001b0: 80fd f13d 8076 c83d 80f4 f4bc c440 6dbd
000001c0: d8d2 cdbc d0c1 85bc 20d2 d53d dea6 913d
000001d0: aeef f1bd f041 e63d 70c2 bd3d 9403 e9bd
000001e0: 047c 9c3d 9cd1 443d f892 813c 6802 97bd
000001f0: 5ca7 713d c863 b7bc e0e1 61bc caeb 84bd
00000200: 583b 32bd d016 713d 8a9c f6bd 626f cdbd
00000210: 50a5 f03c 504e d23d d4ed 9c3d c045 cc3b
00000220: de4c b13d 9a11 fb3d 5ae7 b13d dc54 6e3d
00000230: 8476 3dbd aa94 e5bd d438 c53d 5c31 963d
00000240: dece 82bd aca9 c23d c2f9 d23d f0ca 5dbd
00000250: f61c 94bd f8a0 183d 2090 42bd b020 babd
00000260: f050 acbc 5e27 c43d 3077 fd3d e809 eabc
00000270: 0a0a ca3d 50b8 d73d 5cf3 293d 1265 c4bd
00000280: c04e 873b 2254 80bd b886 fb3d c0ab fd3d
00000290: b6b4 c8bd da64 953d ca27 b1bd d05d 803d
000002a0: 4052 e7bb 446c 9ebd 9ad4 a03d e012 4b3d
000002b0: 52e8 f0bd 92f8 fdbd 5cde d53d e0d4 8a3b
000002c0: 98f3 923c d0dc 9b3d d0ae c33d 2ef0 d03d
000002d0: a6e9 9cbd 66a8 ce3d c4c6 643d 2c27 683d
000002e0: f438 e3bd 30d8 2b3c 90fd 6a3d 904c e8bc
000002f0: 6247 fb3d 5888 9fbc a889 c8bc 00d1 24ba
00000300: 9619 eb3d 9288 9cbd b0e2 5abc 8202 a5bd
00000310: 40ce 183c 142b ccbd 72d7 ec3d 9cc1 53bd
00000320: daef 893d 802e fd3d d0c4 58bd 2ec1 b13d
00000330: a262 e63d 60d4 cdbb 42de c3bd 2cf1 88bd
00000340: 8c5f 5fbd 1cbe 74bd 129a d4bd 4c90 00bd
00000350: 66a8 b1bd 9670 90bd 3a1d 973d 0e1f 8d3d
00000360: 1868 fa3d d8e2 e43c 1ce4 6c3d e8c2 8b3d
00000370: 5602 a2bd ba80 81bd a0d7 47bc 0cbe 0dbd
00000380: 083e 0d3d 4890 a0bc 0008 3bbb 60f3 51bd
00000390: 2e2d 9c3d 2060 a9bd e0e5 043c dc39 7ebd
000003a0: 0250 9d3d f2c7 973d 0a9e bd3d 800e dbba
000003b0: 40de 98bd c83e f83d 7cd2 ebbd 62de bbbd
000003c0: 102c 8e3d 004f 783c 6293 be3d 40c1 fb3c
000003d0: 0ca1 de3d 0087 07bc bc70 eebd 280b f33c
000003e0: 8661 e2bd a824 debc e04c aabd 3236 ad3d
000003f0: c8a7 803c 4064 8fbb 2436 813d e05b 513d

lstm_net.0.hh.bias f4 [256]
-0.044703513 -0.096826494 -0.020827176 0.032586284 -0.08593787 -0.031412255 0.11252104 -0.11764966
-0.0708624 -0.00479044 -0.094044015 -0.045948226 0.09833618 0.024123378 0.10392447 0.0976916
0.063345075 -0.06926915 -0.038769905 -0.049198564 0.060355324 -0.011463273 0.093237706 -0.00104895
0.0756573 0.100016214 0.022201898 -0.019753698 0.11666547 -0.01668457 0.07130873 0.0034013444
-0.12642352 -0.098798424 -0.015352013 -0.11770556 -0.084211566 -0.038536284 -0.0894313 0.10818514
0.09735102 -0.068158835 -0.07006078 0.002684479 -0.05564301 0.033051997 0.09209484 -0.04282157
0.10039719 -0.032794286 0.10183739 -0.04747768 -0.037232876 0.04564724 0.058072746 0.07311387
0.07440704 0.04130185 0.051364586 0.030817926 0.08118761 -0.092387676 0.074191354 -0.12643544
0.0117837 -0.0064348616 0.07553355 -0.079314426 0.124962166 0.08648286 -0.017244715 -0.09121025
0.05239593 0.12622438 0.016005414 -0.01844134 -0.108675286 -0.092947856 0.060771488 0.08924597
0.08602188 0.080527276 0.015145837 -0.019463262 0.01641127 -0.016010273 -0.039661795 0.08394732
0.002569353 -0.12397855 -0.09054607 -0.07348585 0.035245888 -0.08506335 0.07267165 0.11013428
0.040775627 0.04359056 -0.041671325 0.062357478 -0.004009707 -0.0143383 -0.06245505 -0.025634421
0.07421093 0.033880245 -0.11962817 -0.011979847 -0.056055214 -0.027224945 0.024296131 -0.06159046
0.045655776 -0.091318324 0.06565567 -0.089375526 -0.030575061 0.07243696 -0.11994992 -0.09707809
-0.044887424 0.07965037 0.018947026 0.111674875 -0.014268844 -0.09282372 0.05966466 -0.10893548
-0.1120015 0.11089531 0.0874881 0.12020425 0.06904474 0.065092556 -0.012584273 -0.07251499
0.09630938 0.08515392 0.08018042 -0.08067708 0.010004427 -0.06795071 -0.058312897 0.08239426
0.011702514 0.099319816 -0.12195006 -0.11569447 -0.09923359 0.0028716773 -0.09803349 -0.0755233
-0.084463514 -0.11346154 0.025832165 -0.009526141 -0.042335775 -0.06408272 0.003261066 0.06779312
0.074349485 0.115906134 0.003231902 0.040303282 0.03562004 0.06798483 -0.09085523 0.092485994
-0.094996974 -0.042224586 -0.09234446 0.04885698 0.07730174 0.058868818 0.09218909 -0.08439106
0.0830682 0.08626976 0.067577474 0.10661386 -0.08604598 0.07285592 -0.042797744 -0.12405362
0.105419815 -0.04281881 0.114807576 0.09643018 0.1201155 -0.08060522 0.07847832 0.0029524756
0.058494173 0.025601143 -0.07407169 0.017553184 0.002528181 -0.005935115 -0.07785812 -0.026150513
0.095797725 -0.114821434 -0.018576013 -0.08856647 0.100126654 0.10577923 0.07746718 0.094296366
-0.08097516 0.12410123 -0.11516035 -0.10458114 -0.036615547 -0.002279674 -0.02134201 -0.08036917
0.117432944 -0.026714636 -0.033168938 0.1036908 0.063988104 -0.0041478053 -0.04164863 0.10574557
-0.10422857 -0.07837425 -0.012171813 -0.091620386 -0.11017976 0.105523854 0.10621627 0.073825486
-0.024814766 -0.032588586 -0.11319717 0.051092703 0.0055202986 0.05409901 0.016516984 0.12418545
-0.1177911 0.07289688 -0.046571575 0.05382104 0.004997037 -0.12476995 -0.03594725 0.0070080822
0.095846444 0.04092792 0.033905834 -0.0451573 0.13010788 -0.023683023 0.06851348 -0.047095925
00000000: 081b 37bd f84c c6bd c19d aabc 3279 053d
00000010: 3200 b0bd 23aa 00bd 6e71 e63d 4ef2 f0bd
00000020: 4e20 91bd 20f9 9cbb 269a c0bd 3534 3cbd
00000030: 7b64 c93d 649e c53c 5ad6 d43d 8912 c83d
00000040: 10bb 813d fcdc 8dbd 31cd 1ebd 6f84 49bd
00000050: 2537 773d 74d0 3bbc 69f3 be3d ec7c 89ba
00000060: 37f2 9a3d 4dd5 cc3d c1e0 b53c 82d2 a1bc
00000070: 4eee ee3d 14ae 88bc 500a 923d 17e9 5e3b
00000080: 2b75 01be d456 cabd 0287 7bbc 9d0f f1bd
00000090: 1d77 acbd 39d8 1dbd c227 b7bd 2c90 dd3d
000000a0: f95f c73d dc96 8bbd 077c 8fbd 16ee 2f3b
000000b0: ede9 63bd 8861 073d 389c bc3d ac65 2fbd
000000c0: 0b9d cd3d 4d53 06bd 1f90 d03d f577 42bd
000000d0: 8081 18bd 9af8 3a3d b0dd 6d3d babc 953d
000000e0: b862 983d 212c 293d ac63 523d e075 fc3c
000000f0: b145 a63d c035 bdbd a3f1 973d 4b78 01be
00000100: 6c10 413c 88db d2bb 55b1 9a3d 9a6f a2bd
00000110: 2aec ff3d ed1d b13d ca44 8dbc 71cc babd
00000120: 1d9d 563d f740 013e c91d 833c 4b12 97bc
00000130: 2691 debd 725b bebd 86eb 783d 97c6 b63d
00000140: 3d2c b03d 7ceb a43d 3f26 783c 6b71 9fbc
00000150: ed70 863c fa27 83bc 6874 22bd 93ec ab3d
00000160: 9762 283b 77e8 fdbd 3870 b9bd c07f 96bd
00000170: fe5d 103d b235 aebd e0d4 943d 158e e13d
00000180: 5804 273d 048c 323d 8daf 2abd 8e6a 7f3d
00000190: dc63 83bb 30eb 6abc ded0 7fbd 47ff d1bc
000001a0: e6fb 973d 03c6 0a3d 9dff f4bd 1f47 44bc
000001b0: 279a 65bd d906 dfbc ae08 c73c 4746 7cbd
000001c0: 8d01 3b3d 1a05 bbbd 7b76 863d 840a b7bd
000001d0: 8d78 fabc d459 943d 4ea8 f5bd e1d0 c6bd
000001e0: e0db 37bd bc1f a33d cb36 9b3c ccb5 e43d
000001f0: dfc7 69bc 5d1a bebd ee62 743d 9119 dfbd
00000200: 0b61 e5bd 151d e33d f62c b33d a52d f63d
00000210: 5467 8d3d 3f4f 853d 442e 4ebc bd82 94bd
00000220: da3d c53d 2e65 ae3d a235 a43d 063a a5bd
00000230: 9ce9 233c be29 8bbd 81d9 6ebd 52be a83d
00000240: e7bb 3f3c 3068 cb3d f4c0 f9bd 39f1 ecbd
00000250: fb3a cbbd c032 3c3b c8c5 c8bd f6ab 9abd
00000260: 35fb acbd 865e e8bd fa9d d33c 8813 1cbc
00000270: 4768 2dbd cd3d 83bd 9cb7 553b 1fd7 8a3d
00000280: 8b44 983d 3260 ed3d 51ce 533b 0e15 253d
00000290: 52e6 113d a13b 8b3d 4f12 babd 4c69 bd3d
000002a0: c68d c2bd b0f3 2cbd 181f bdbd 421e 483d
000002b0: 6050 9e3d 6e20 713d a2cd bc3d 38d5 acbd
000002c0: a91f aa3d 33ae b03d 0f66 8a3d 5e58 da3d
000002d0: e038 b0bd 7c35 953d b04c 2fbd d30f febd
000002e0: 58e6 d73d c762 2fbd 3c20 eb3d 307d c53d
000002f0: 1eff f53d 5914 a5bd 3eb9 a03d 527e 413b
00000300: 9697 6f3d 7db9 d13c e6b2 97bd b2cb 8f3c
00000310: d7af 253b 5a7b c2bb 1474 9fbd 9a39 d6bc
00000320: 9931 c43d 8027 ebbd b92c 98bc 5662 b5bd
00000330: 340f cd3d c8a2 d83d 1da7 9e3d 741e c13d
00000340: 4ed6 a5bd c928 fe3d 31d9 ebbd a32e d6bd
00000350: 2ffa 15bd 9566 15bb 70d5 aebc 9798 a4bd
00000360: af80 f03d a7d8 dabc 27dc 07bd d85b d43d
00000370: 320c 833d 50ea 87bb c197 2abd 2291 d83d
00000380: ca75 d5bd ae82 a0bd 496c 47bc 78a3 bbbd
00000390: eda5 e1bd e41c d83d ea87 d93d d131 973d
000003a0: 5648 cbbc 9c7b 05bd ebd3 e7bd 9546 513d
000003b0: 9fe3 b43b ec96 5d3d a04e 873c f154 fe3d
000003c0: 763c f1bd f64a 953d d6c1 3ebd 7373 5c3d
000003d0: 2fbe a33b 6387 ffbd 6c3d 13bd 0ea4 e53b
000003e0: 244b c43d 09a4 273d d8e0 0a3d dcf6 38bd
000003f0: 003b 053e e602 c2bc cc50 8c3d a8e7 40bd

lstm_net.1.xh.weight f4 [256, 64]
-0.059351545 -0.028507566 0.124784715 0.005236907 0.011238509 0.064832054 -0.06408035 0.0051158047
-0.04478202 -0.06801761 -0.120955944 -0.074119315 -0.0804977 -0.02446839 -0.04833485 -0.09792405
-0.0516503 0.07080952 0.09674404 0.054193534 0.14031844 0.06664003 0.036743615 -0.019007547
-0.034778032 0.026316794 0.01066563 -0.0314235 0.12102637 -0.034186833 0.051248115 -0.10196587
-0.14046204 0.07709287 -0.15672137 0.09661121 -0.029108599 0.11355284 -0.0061429497 -0.034619786
0.08803713 -0.16477297 0.007611181 0.11301769 -0.056956742 -0.06802103 0.054195404 0.023965284
-0.005999129 -0.04652549 0.12953764 0.14951742 -0.00943849 0.0039058058 -0.020302463 0.06721668
0.10317762 -0.01870853 0.0701664 -0.07316078 0.048236765 -0.029945804 -0.042975396 0.09769758
0.10673468 -0.0419669 0.016392762 0.033414934 0.0053517143 -0.048312493 -0.057063684 0.05056768
-0.05809852 -0.027239729 -0.14955641 0.02427978 -0.04589668 0.11974693 -0.13301031 -0.041061807
0.107699 0.062263116 -0.07005569 0.14712551 0.08880131 0.12902345 0.077896185 -0.11109258
-0.0049897493 -0.10661042 -0.12436258 -0.08081745 0.03866451 -0.04115187 -0.085626766 -0.028993914
0.12535001 0.06912574 -0.10538203 -0.0026655586 -0.07689636 0.047778223 -0.13793516 -0.116165556
0.1372036 -0.11383699 0.086457506 0.09503891 -0.09312844 -0.013426974 -0.07733946 -0.11961708
0.038103014 0.063500226 -0.11549741 0.0007653354 0.07563424 0.07513919 -0.016692825 0.020594396
0.038806453 -0.016587915 -0.16096567 -0.03699463 -0.07063699 0.09565737 -0.042922284 -0.11408093
-0.11594632 -0.07157361 -0.11792163 0.108919196 -0.016200185 0.08975071 0.063612215 -0.11425887
0.011759571 0.04093013 -0.11448848 0.0916549 0.022560935 0.040925372 0.019182429 -0.08927068
-0.08216999 0.10591478 0.051563486 0.057961438 0.023063635 -0.0026605052 -0.09207668 -0.019892333
0.069113284 0.03133846 -0.066867635 0.08811134 -0.0811478 -0.09526559 0.027329136 -0.049944475
-0.070059784 -0.10928989 0.06487892 0.01981596 0.029738242 -0.026206542 -0.007693412 0.049820155
-0.041171413 -0.11938171 0.08581251 -0.025565788 0.038490172 0.13725236 0.10080124 0.04978321
-0.054668926 0.09272417 -0.01481293 -0.120405026 -0.058482785 -0.0616483 -0.040749114 -0.005377868
0.035961147 0.067355536 -0.056173485 0.06325478 -0.0009113987 0.07354494 0.12587914 -0.05003328
0.101651385 -0.1533009 0.13537818 0.013042788 0.089957945 -0.021328822 -0.051623467 0.03722824
-0.053825878 -0.14492314 0.022613991 -0.01612997 0.13166392 0.12938222 -0.13962027 -0.015137247
0.08201157 0.01304314 -0.10190417 0.0167552 0.016832598 0.1114254 -0.108377285 0.10816997
-0.09264045 -0.12811218 0.02947717 -0.05269457 -0.09393374 0.022609133 0.057029102 -0.046839867
0.04569158 -0.05551139 0.08565278 0.1431405 0.16695154 0.013295328 -0.070495375 0.0874584
-0.022332186 -0.11164992 0.08656404 0.06503224 0.02613572 -0.022273865 -0.06506736 0.053572994
-0.038981885 0.099042155 -0.05556336 0.062172458 0.03234626 0.06791254 -0.00082141056 -0.036676485
-0.115534276 0.006185574 0.035738576 -0.041154914 -0.08344204 -0.03154018 0.03854889 -0.14621957
00000000: 9b1a 73bd b388 e9bc 218f ff3d 5c9a ab3b
00000010: b921 383c abc6 843d 8f3c 83bd 7ba2 a73b
00000020: 5a6d 37bd d14c 8bbd c0b7 f7bd decb 97bd
00000030: fadb a4bd ef71 c8bc c4fa 45bd 688c c8bd
00000040: 448f 53bd 9504 913d bd21 c63d 0afa 5d3d
00000050: a3af 0f3e 917a 883d 7980 163d b7b5 9bbc
00000060: 6973 0ebd 5196 d73c e5be 2e3c eeb5 00bd
00000070: acdc f73d 7e07 0cbd 8be9 513d 7bd3 d0bd
00000080: 48d5 0fbe dee2 9d3d 917b 20be 19dc c53d
00000090: 2875 eebc 648e e83d cc4a c9bb 7acd 0dbd
000000a0: d04c b43d 3fba 28be 3767 f93b d275 e73d
000000b0: 794b 69bd 9c4e 8bbd 00fc 5d3d d852 c43c
000000c0: 5794 c4bb 8391 3ebd 84a5 043e 181b 193e
000000d0: e5a3 1abc 8cf8 7f3b 5a51 a6bc e6a8 893d
000000e0: ca4e d33d a242 99bc 67b3 8f3d 52d5 95bd
000000f0: ea93 453d e750 f5bc f806 30bd ab15 c83d
00000100: b697 da3d 7ce5 2bbd 1d4a 863c 19de 083d
00000110: 6f5d af3b 52e3 45bd 9cbb 69bd 0e20 4f3d
00000120: b7f8 6dbd da25 dfbc 5125 19be 64e6 c63c
00000130: 28fe 3bbd e13d f53d db33 08be 6d30 28bd
00000140: 4b91 dc3d 9c07 7f3d 5c79 8fbd 12a8 163e
00000150: 76dd b53d b91e 043e 0988 9f3d 8284 e3bd
00000160: 0d81 a3bb 9056 dabd cfb1 febd 9f83 a5bd
00000170: ad5e 1e3d dd8e 28bd 165d afbd a584 edbc
00000180: c15b 003e cc91 8d3d 89d2 d7bd a7b0 2ebb
00000190: d77b 9dbd 19b3 433d e03e 0dbe 35e8 edbd
000001a0: 1a7f 0c3e 5e23 e9bd a210 b13d c3a3 c23d
000001b0: 20ba bebd d0fc 5bbc 2764 9ebd cdf9 f4bd
000001c0: e811 1c3d 680c 823d e889 ecbd caa0 483a
000001d0: 20e6 9a3d 93e2 993d 64bf 88bc 94b5 a83c
000001e0: 84f3 1e3d 61e3 87bc 2fd4 24be ae87 17bd
000001f0: 20aa 90bd 03e8 c33d 47cf 2fbd 43a3 e9bd
00000200: 4475 edbd 2f95 92bd e580 f1bd 0711 df3d
00000210: 40b6 84bc 38cf b73d 1f47 823d 8e00 eabd
00000220: 37ab 403c 5aa6 273d f078 eabd 90b5 bb3d
00000230: b6d1 b83c 5da1 273d 7824 9d3c 8cd3 b6bd
00000240: bd48 a8bd d9e9 d83d 3c34 533d f968 6d3d
00000250: f3ef bc3c df5b 2ebb b392 bcbd 3ff5 a2bc
00000260: 448b 8d3d c25c 003d e6f1 88bd b873 b43d
00000270: d130 a6bd 9b1a c3bd 5ae1 df3c 9492 4cbd
00000280: 817b 8fbd 61d3 dfbd 3ddf 843d 1555 a23c
00000290: 9d9d f33c 1aaf d6bc 0419 fcbb 3810 4c3d
000002a0: 5ba3 28bd 667e f4bd 78be af3d 586f d1bc
000002b0: dfa7 1d3d e28b 0c3e e170 ce3d 7be9 4b3d
000002c0: 86ec 5fbd 2be6 bd3d eeb1 72bc e996 f6bd
000002d0: a58b 6fbd ee82 7cbd 8be8 26bd d438 b0bb
000002e0: ff4b 133d b3f1 893d 2b16 66bd b98b 813d
000002f0: eeea 6eba bb9e 963d 76e6 003e b2ef 4cbd
00000300: 9a2e d03d e9fa 1cbe 94a0 0a3e 6bb1 553c
00000310: df3b b83d c8b9 aebc 2173 53bd a47c 183d
00000320: 8678 5cbd bb66 14be fa40 b93c 0023 84bc
00000330: e8d2 063e c67c 043e 9ef8 0ebe 3702 78bc
00000340: aff5 a73d e5b2 553c 22b3 d0bd 3442 893c
00000350: 84e4 893c 0033 e43d e9f4 ddbd 3888 dd3d
00000360: 47ba bdbd d72f 03be 1b7a f13c 43d6 57bd
00000370: 5560 c0bd ca36 b93c 5997 693d 29db 3fbd
00000380: 1827 3b3d e95f 63bd ba6a af3d 6c93 123e
00000390: 58f5 2a3e a6d4 593c e15f 90bd 641d b33d
000003a0: fdf1 b6bc b7a8 e4bd 7d48 b13d 9f2f 853d
000003b0: 941a d63c ae77 b6bc 0942 85bd 5b6f 5b3d
000003c0: 78ab 1fbd 9dd6 ca3d 6896 63bd 8ca8 7e3d
000003d0: 837d 043d bb15 8b3d ee53 57ba 153a 16bd
000003e0: 3c9d ecbd 5bb0 ca3b 9d62 123d 0e92 28bd
000003f0: a9e3 aabd 4730 01bd 71e5 1d3d 95ba 15be

lstm_net.1.xh.bias f4 [256]
0.011628715 -0.020411871 0.061490726 -0.008587966 0.032865644 -0.025399828 0.10193379 0.03395314
0.066136345 0.053663988 -0.008788035 0.13094433 0.02606208 0.14034319 0.047597583 0.024371665
-0.033135083 0.0049061333 0.09813517 -0.006484819 -0.058821984 0.1178082 -0.074903585 0.040247593
0.109393224 -0.046249386 0.09566592 -0.00477514 0.1227069 0.10657034 -0.087038524 0.09324877
0.10710198 -0.06337683 -0.07213718 -0.02085617 0.07824606 0.08469283 -0.06820027 -0.00043514598
0.0117850695 0.15623066 0.15927303 0.16418755 0.14087307 0.13893248 0.08994556 0.11855635
0.027528208 -0.0070720864 -0.0053277165 0.08695829 0.039235003 0.050139688 0.16062064 0.04489848
-0.00084396236 -0.07198341 -0.057077795 -0.04475788 0.054336004 0.0842756 0.15107968 0.15050343
0.02050975 0.011355544 0.012072296 0.04223781 0.0067075146 -0.07394719 0.11101206 0.087111905
0.08259641 0.13054742 -0.041958474 0.072469756 -0.006325082 0.14486729 0.14421628 0.041405696
-0.0648685 -0.048051156 -0.009543346 0.1321354 0.13934787 -0.03382677 -0.016734997 0.15430412
0.09651845 -0.07337154 0.12993409 -0.011595171 0.06962498 0.08087949 -0.053532165 0.0013846987
0.027760025 0.021408923 0.011839401 0.0950643 -0.035243776 -0.088560805 0.001879558 -0.049598385
0.10552394 0.0020864455 0.027326453 0.07281478 0.065700956 0.10502712 -0.01305218 0.14507608
-0.010649109 0.01492489 0.097774655 -0.034168553 0.13990164 0.10118228 -0.036847077 0.16456936
-0.036217798 -0.029239038 0.088195086 -0.0064903963 0.0502941 0.14559267 -0.055139087 0.12789243
-0.12889688 -0.03669352 -0.08208462 -0.0847317 -0.010155284 -0.103535995 -0.121365935 -0.027328184
-0.016314542 -0.0056303567 0.13697667 -0.014174952 -0.11768577 0.10870503 0.08122971 0.020625519
0.013172105 0.15009202 -0.06584 0.11641028 0.13575944 0.085517235 0.062169626 0.13258573
-0.08144095 -0.03607774 -0.016955724 0.0030131617 -0.10844631 0.05471201 -0.14535291 -0.016840506
0.078772835 0.102058716 0.0173003 0.109170325 -0.07715827 -0.06070306 0.039705846 0.14775923
-0.1315425 -0.0760597 0.06441973 -0.013714097 -0.07445701 -0.15493119 -0.09317885 0.08837299
0.092587374 0.07103441 0.113785304 -0.06652092 0.066544645 -0.065793954 0.09444397 -0.013026535
-0.009313295 -0.057544008 0.035340413 0.09459826 -0.034736097 0.09315937 -0.05242287 -0.120742634
0.049685005 0.017245756 -0.032700755 0.06144905 0.007186636 0.12562814 -0.08178177 0.16637997
-0.038829472 0.07705726 0.13027227 -0.03472678 -0.07601818 0.01016247 -0.0026739996 0.038771294
0.13385525 0.14971614 -0.007929192 0.12348527 0.02628014 -0.09389942 -0.066004336 0.07834078
0.037185594 0.13157956 0.15234976 0.13127522 -0.041101463 0.044410754 -0.027496817 -0.044970054
0.10197604 -0.08086161 0.068344094 0.063702315 -0.0060679414 0.09164785 -0.0015518568 0.10998798
0.0018456327 -0.05742854 -0.047794312 0.13674477 0.06646452 -0.031275246 0.021552159 -0.031288993
-0.029522546 0.12657395 0.10950612 0.08467652 0.033244412 -0.03180556 -0.029128227 -0.006101322
-0.05858293 0.09277018 0.08211331 0.027809875 0.031598408 -0.044498492 -0.021904297 0.065499626
00000000: 5e86 3e3c cc36 a7bc b3dd 7b3d 8ab4 0cbc
00000010: 209e 063d 4d13 d0bc aac2 d03d 7312 0b3d
00000020: 7e72 873d c5ce 5b3d b1fb 0fbc 4516 063e
00000030: 2580 d53c 20b6 0f3e aff5 423d 16a7 c73c
00000040: a7b8 07bd a1c3 a03b 18fb c83d 9b7e d4bb
00000050: 52ef 70bd 6d45 f13d 0d67 99bd a9da 243d
00000060: 8e09 e03d ff6f 3dbd 7eec c33d c778 9cbb
00000070: c14d fb3d 8d41 da3d 4141 b2bd 36f9 be3d
00000080: 4858 db3d b6cb 81bd a8bc 93bd 8fda aabc
00000090: 783f a03d 6f73 ad3d 95ac 8bbd 4e24 e4b9
000000a0: 2a16 413c eefa 1f3e 7818 233e c820 283e
000000b0: 0841 103e 5144 0e3e 6135 b83d accd f23d
000000c0: d682 e13c f6bc e7bb 2094 aebb 3017 b23d
000000d0: e2b4 203d 465f 4d3d bd79 243e 78e7 373d
000000e0: 5b3d 5dba 0a6c 93bd 68ca 69bd 0a54 37bd
000000f0: 6e8f 5e3d b098 ac3d a2b4 1a3e 921d 1a3e
00000100: 1004 a83c 9b0c 3a3c e1ca 453c 8e01 2d3d
00000110: b6ca db3b a071 97bd 4a5a e33d ba67 b23d
00000120: 4e28 a93d 39ae 053e a6dc 2bbd 066b 943d
00000130: a242 cfbb 1758 143e 6fad 133e 0599 293d
00000140: c7d9 84bd 4ad1 44bd b25b 1cbc 814e 073e
00000150: 35b1 0e3e f08d 0abd d517 89bc e601 1e3e
00000160: 77ab c53d d143 96bd 710d 053e acf9 3dbc
00000170: 8b97 8e3d 25a4 a53d 8b44 5bbd c77e b53a
00000180: fe68 e33c c461 af3c 0cfa 413c 12b1 c23d
00000190: c75b 10bd 5e5f b5bd 805b f63a ad27 4bbd
000001a0: ef1c d83d bfbc 083b badb df3c ea1f 953d
000001b0: 398e 863d 7518 d73d d0d8 55bc d38e 143e
000001c0: 9a79 2ebc 8787 743c 143e c83d 53f4 0bbd
000001d0: 6042 0f3e a838 cf3d f6ec 16bd df84 283e
000001e0: 1d59 14bd b586 efbc a09f b43d 64ad d4bb
000001f0: 3001 4e3d 3f16 153e 86d9 61bd 3cf6 023e
00000200: 8bfd 03be f24b 16bd fb1b a8bd d087 adbd
00000210: 5962 26bc ae0a d4bd b48e f8bd 5bdf dfbc
00000220: 13a6 85bc db7e b8bb 9d43 0c3e 0f3e 68bc
00000230: 3d05 f1bd bea0 de3d c35b a63d d9f6 a83c
00000240: d0cf 573c b9b1 193e 1fd7 86bd 8368 ee3d
00000250: 8604 0b3e a923 af3d 94a5 7e3d 8ec4 073e
00000260: 83ca a6bd 41c6 13bd bbe6 8abc 7778 453b
00000270: 1919 debd b319 603d 65d7 14be 1af5 89bc
00000280: a753 a13d 2904 d13d 5cb9 8d3c b194 df3d
00000290: 2805 9ebd c6a3 78bd 99a2 223d 324e 173e
000002a0: 14b3 06be 30c5 9bbd 7eee 833d 18b1 60bc
000002b0: eb7c 98bd 48a6 1ebe 8ed4 bebd e6fc b43d
000002c0: 739e bd3d 7d7a 913d 4508 e93d 1f3c 88bd
000002d0: 8f48 883d fbbe 86bd d76b c13d 3f6d 55bc
000002e0: ca96 18bc 44b3 6bbd 1cc1 103d bcbc c13d
000002f0: 7047 0ebd 57ca be3d 5db9 56bd ea47 f7bd
00000300: 8182 4b3d f946 8d3c 3af1 05bd 00b2 7b3d
00000310: df7d eb3b aaa4 003e 337d a7bd 835f 2a3e
00000320: a70b 1fbd 32d0 9d3d 1866 053e ab3d 0ebd
00000330: 6baf 9bbd 7d80 263c 453e 2fbb a6ce 1e3d
00000340: 5a11 093e 304f 193e 71e9 01bc d8e5 fc3d
00000350: 7349 d73c 574e c0bd 482d 87bd 2271 a03d
00000360: ec4f 183d cbbc 063e 9301 1c3e 036d 063e
00000370: 025a 28bd 0de8 353d 0141 e1bc 8532 38bd
00000380: d0d8 d03d c69a a5bd fdf7 8b3d 5c76 823d
00000390: 95d5 c6bb deb1 bb3d ac67 cbba 6141 e13d
000003a0: 28e9 f13a 303a 6bbd f8c3 43bd d206 0c3e
000003b0: 8d1e 883d 791a 00bd 278e b03c e328 00bd
000003c0: 44d9 f1bc 9a9c 013e bf44 e03d e26a ad3d
000003d0: 4b2b 083d 8c46 02bd 529e eebc 99ed c7bb
000003e0: a8f4 6fbd 4bfe bd3d 062b a83d 89d1 e33c
000003f0: 556d 013d 0d44 36bd a470 b3bc ab24 863d

lstm_net.1.hh.weight f4 [256, 64]
0.03788182 -0.023486719 0.087305516 0.042840213 -0.12016873 0.039576888 -0.0022308975 -0.015377045
0.07480949 0.0066076666 -0.08282755 0.032793358 -0.077720344 0.014205158 0.07066065 0.056095347
-0.11758718 -0.009668723 -0.02722396 -0.090364024 -0.08772524 0.115027115 0.07737373 0.08264947
-0.05394149 0.064557895 0.090022996 -0.014086783 -0.056049526 0.08103867 -0.033083513 -0.08063276
0.080354735 -0.05260709 -0.041986167 -0.11604263 -0.113315284 0.0941035 0.10884175 0.11727509
0.084984496 -0.0889308 0.07653983 -0.11262277 -0.01195468 0.037756294 -0.054720104 -0.064583495
-0.12244019 0.007980734 -0.032625735 -0.10897033 -0.05684392 0.028052554 -0.0522473 -0.036502242
0.030502543 0.109961495 -0.028673366 0.08547285 -0.11559607 -0.105388224 0.067540154 0.034136906
-0.11888301 0.04971394 -0.05833994 -0.05047205 -0.094925866 0.10173848 0.10226846 0.10374649
-0.028699815 0.057620764 0.0061999112 0.08970986 -0.020808905 -0.087296054 0.07550554 -0.022329018
-0.050400153 0.008433774 0.022744596 0.07546851 0.107018515 -0.004851058 0.057219878 0.044353157
0.08950506 0.09550293 0.059822068 -0.030241475 -0.013790041 -0.08353165 0.04206218 -0.108575344
-0.112264976 -0.054087028 0.05601257 -0.023169756 -0.09756103 -0.0887692 0.104737654 -0.101266995
0.067779124 0.06187862 0.109328315 0.019075423 0.029090345 -0.060344428 0.019577429 -0.10242638
-0.02879414 0.023079872 0.036428705 0.06742643 0.073378816 -0.01852715 0.05429484 -0.07755326
-0.1220987 -0.10781048 0.01901561 0.030538678 -0.006755978 0.08332944 0.06978014 0.0741135
0.074009135 -0.015882894 0.06618896 0.0077792853 0.030055344 0.07241386 0.10734472 0.11896856
-0.0543831 0.123727456 -0.058805928 -0.12310645 0.09670222 0.0022964329 0.09468119 -0.06821743
0.010132417 0.07018463 -0.068495795 0.10282852 -0.06874795 0.1188834 -0.06583382 -0.008936256
-0.08327706 0.09710108 -0.07882328 0.05096951 0.047186628 0.015331969 0.041393295 -0.006623611
-0.09597954 0.07627745 -0.121072054 -0.09899753 0.10915223 0.112609774 -0.00797306 0.071888044
0.096677646 0.074327245 0.045475334 -0.055380702 -0.077746004 -0.03370203 0.113606915 -0.041199148
0.11356662 -0.04726833 0.011693478 -0.0065484196 -0.058733255 0.032022476 0.049395964 0.111994416
0.092591256 -0.00836578 0.108294025 0.04028091 -0.0016229451 0.06352186 -0.039946258 -0.066253975
-0.097684264 -0.050932735 -0.08933805 -0.09520936 0.09041616 -0.083493635 -0.0721346 -0.052355498
0.026859015 0.014776781 -0.021053493 -0.008617327 -0.12282924 0.055662528 0.007208079 -0.06564365
-0.011301309 -0.049071595 -0.10608117 -0.09179373 0.0978353 -0.10561217 -0.06691621 -0.08941485
0.007954508 0.025867224 0.08116618 0.028744265 0.120176956 -0.043810055 -0.008429483 -0.11222324
0.083981186 -0.11924571 -0.11690268 0.018562585 -0.08007422 -0.12437238 -0.044128895 -0.07181579
0.09112343 -0.09872937 -0.07434821 -0.111851364 -0.08661504 -0.012787089 -0.048577607 -0.10480416
-0.06226839 -0.078069344 -0.10156168 -0.045622095 -0.09927204 -0.014607385 0.040245697 -0.10881765
0.05607705 -0.12163554 0.002526477 -0.060679615 0.09196131 -0.007952556 0.121143684 0.11682238
00000000: f829 1b3d 3867 c0bc 3ccd b23d 3879 2f3d
00000010: 061b f6bd 601b 223d 4034 12bb 00f0 7bbc
00000020: b835 993d 2085 d83b 7ea1 a9bd 5452 063d
00000030: d82b 9fbd c0bc 683c 88b6 903d 3cc4 653d
00000040: 8cd1 f0bd 9069 1ebc c804 dfbc c610 b9bd
00000050: 4aa9 b3bd 5693 eb3d 1e76 9e3d 2044 a93d
00000060: c0f1 5cbd ee36 843d fa5d b83d 40cc 66bc
00000070: 3094 65bd 9af7 a53d 9482 07bd ca22 a5bd
00000080: 0691 a43d 887a 57bd b0f9 2bbd c2a7 edbd
00000090: d811 e8bd 56b9 c03d 6ce8 de3d ec2d f03d
000000a0: 5a0c ae3d 5a21 b6bd eac0 9c3d c4a6 e6bd
000000b0: 90dd 43bc 58a6 1a3d 3022 60bd 5a44 84bd
000000c0: ecc1 fabd a0c1 023c 90a2 05bd d62b dfbd
000000d0: 2cd5 68bd 78ce e53c 4401 56bd 6083 15bd
000000e0: 78e0 f93c 7e33 e13d 68e4 eabc 640c af3d
000000f0: a2bd ecbd c8d5 d7bd 7e52 8a3d 24d3 0b3d
00000100: f078 f3bd d8a0 4b3d dcf5 6ebd c8bb 4ebd
00000110: 7e68 c2bd 445c d03d 2072 d13d 0a79 d43d
00000120: e01b ebbc c003 6c3d a028 cb3b ceb9 b73d
00000130: 7077 aabc 46c8 b2bd a6a2 9a3d 58eb b6bc
00000140: 6470 4ebd d02d 0a3c e052 ba3c 3c8f 9a3d
00000150: 862c db3d a0f5 9ebb 645f 6a3d a8ab 353d
00000160: 6e4e b73d 0a97 c33d fc07 753d f8bc f7bc
00000170: a0ef 61bc a412 abbd 6449 2c3d c05c debd
00000180: 2eeb e5bd 5c8a 5dbd 706d 653d 80ce bdbc
00000190: 14ce c7bd a0cc b5bd b280 d63d 1265 cfbd
000001a0: c8cf 8a3d 7074 7d3d 86e7 df3d 1044 9c3c
000001b0: e04e ee3c b82b 77bd d860 a03c ecc4 d1bd
000001c0: b0e1 ebbc 0012 bd3c 4436 153d de16 8a3d
000001d0: a247 963d 40c6 97bc 4464 5e3d 3ed4 9ebd
000001e0: e20e fabd becb dcbd a0c6 9b3c 402c fa3c
000001f0: 4061 ddbb a0a8 aa3d e4e8 8e3d d2c8 973d
00000200: 1a92 973d d81c 82bc 148e 873d 60e9 fe3b
00000210: a036 f63c b84d 943d 8cd7 db3d caa5 f33d
00000220: d0c0 5ebd d264 fd3d 7cde 70bd 3c1f fcbd
00000230: d00b c63d c07f 163b 36e8 c13d 94b5 8bbd
00000240: 7002 263c f6bc 8f3d 8647 8cbd c297 d23d
00000250: bacb 8cbd 2479 f33d e2d3 86bd 6069 12bc
00000260: 2a8d aabd eedc c63d 1a6e a1bd 68c5 503d
00000270: c446 413d f032 7b3c 048c 293d e00a d9bb
00000280: ec90 c4bd 5a37 9c3d a0f4 f7bd 38bf cabd
00000290: 348b df3d f49f e63d 70a1 02bc 0a3a 933d
000002a0: eefe c53d e238 983d 5844 3a3d e0d6 62bd
000002b0: 4c39 9fbd 240b 0abd beaa e83d 70c0 28bd
000002c0: 9e95 e83d 709c 41bd 0096 3f3c 2094 d6bb
000002d0: 4892 70bd 002a 033d 6c53 4a3d 545d e53d
000002e0: 7ca0 bd3d a010 09bc 42c9 dd3d 98fd 243d
000002f0: 00b9 d4ba c017 823d b09e 23bd 2ab0 87bd
00000300: b00e c8bd d89e 50bd def6 b6bd 20fd c2bd
00000310: 1c2c b93d b6fe aabd 4ebb 93bd b872 56bd
00000320: 7007 dc3c 501a 723c 6078 acbc b02f 0dbc
00000330: e68d fbbd 64fe 633d c031 ec3b 2e70 86bd
00000340: 2029 39bc 4cff 48bd 1641 d9bd 5afe bbbd
00000350: e05d c83d 324b d8bd 5e0b 89bd 221f b7bd
00000360: a053 023c 80e7 d33c 743a a63d 1879 eb3c
00000370: 561f f63d 2c72 33bd d01b 0abc 4cd5 e5bd
00000380: 54fe ab3d 1837 f4bd ac6a efbd 9010 983c
00000390: f4fd a3bd f2b6 febd 80c0 34bd 2814 93bd
000003a0: ec9e ba3d a032 cabd e043 98bd 5412 e5bd
000003b0: 3a63 b1bd f080 51bc 50f9 46bd 90a3 d6bd
000003c0: 240d 7fbd d2e2 9fbd 92ff cfbd 3cde 3abd
000003d0: 244f cbbd d053 6fbc acd8 243d cadb debd
000003e0: 0cb1 653d 0e1c f9bd 4093 253b 308b 78bd
000003f0: 3656 bc3d 704b 02bc 2e1a f83d 9240 ef3d
