parameters/best_model_108_1_0.007179256564453102.pth (torch, 264052 bytes, 6 tensors)

lstm_net.0.xh.weight f4 [432, 40]
0	0xbdae2a04	-0.085041076
1	0xbdae1698	-0.08500403
2	0x3c2648e8	0.010149218
3	0x3c846758	0.01616256
4	0xbc46130c	-0.012089502
5	0xbd2bcbec	-0.041942522
6	0xbd474b3e	-0.04865574
7	0xbcc9d5d7	-0.0246381
8	0xbddf2515	-0.10895745
9	0xbdd55876	-0.10417263
10	0xbca61234	-0.020272352
11	0xbe2d970e	-0.16952154
12	0xbe28edaa	-0.16496912
13	0xbc5b583e	-0.013387738
14	0xbe0bbb64	-0.13645703
15	0xbd4b90cc	-0.049698636
16	0x3bd1b33e	0.006399541
17	0x3be7cc1e	0.007073893
18	0xbb2ca8e9	-0.0026345795
19	0xbd882928	-0.06648475
20	0x3c3179bb	0.010832245
21	0x3dd9861b	0.10621282
22	0x3726592e	9.915135e-06
23	0x3d2476f0	0.04015249
24	0xbd3dd173	-0.046342324
25	0x3d44c289	0.048037086
26	0xbdbf45cc	-0.093394846
27	0xbd8fea16	-0.0702707
28	0x3d96e4ea	0.07367881
29	0xbd2d3928	-0.042290837
30	0x3dc3c999	0.09559936
31	0xbd996519	-0.07489986
32	0xbd9cea23	-0.076618455
33	0x3d7841f9	0.06060979
34	0xbd454173	-0.04815812
35	0xbdab4b23	-0.083639406
36	0x3d0662f8	0.032809228
37	0x3d9df810	0.0771333
38	0xbd2d5e56	-0.042326294
39	0x3db2e052	0.08734192
40	0xbc2f955f	-0.010716765
41	0x3c667e07	0.014068133
42	0xbdac22c7	-0.08405071
43	0xbdf35cbf	-0.11882924
44	0xbd49ec2b	-0.049297493
45	0xbd35d65a	-0.044393875
46	0xbd22091f	-0.03955948
47	0xbc036e35	-0.008021881
48	0xbdc80824	-0.09767178
49	0xbe07afd9	-0.13250674
50	0xbdc25c9a	-0.094903186
51	0xbd35252c	-0.044224903
52	0xbbc6a37d	-0.00606197
53	0xbe060f21	-0.13091709
54	0xbdefcbc0	-0.11708784
55	0x3bfb54f1	0.007670038
56	0xbdd91384	-0.105994254
57	0xbd04c56a	-0.03241483
58	0xbba60bb3	-0.0050673126
59	0xbcb5597b	-0.022137394
60	0xbc3694b8	-0.011143856
61	0xbddd7d49	-0.10814912
62	0xbe0e5376	-0.13899025
63	0xbdf4f53f	-0.119608395
64	0x3d277a0f	0.04088789
65	0xbd8f2de3	-0.06991174
66	0x3d515037	0.05110189
67	0xbbf0c5a0	-0.0073477775
68	0xbdbbcc98	-0.091698825
69	0xbda79045	-0.08181814
70	0xbd937274	-0.071995646
71	0x3db65ea7	0.08904772
72	0xbd91004a	-0.07080133
73	0x3c4616d7	0.012090406
74	0xbdac18f5	-0.08403198
75	0x3d96db46	0.07366042
76	0x3db12cd9	0.08651132
77	0x3d0e25e2	0.034704097
78	0xbce28830	-0.02765283
79	0xbda76ebd	-0.081754185
80	0x3dccf109	0.10006911
81	0x3d244ec9	0.040114198
82	0x3df3bc2c	0.11901125
83	0xbcc2f98e	-0.023800638
84	0x3d278c0d	0.040905047
85	0x3d0ebd52	0.03484852
86	0x3cc7ec8f	0.024404792
87	0x3d32e0a4	0.043671265
88	0xbca53a60	-0.020169437
89	0x3c4c1b9e	0.012457756
90	0x3df9a1fe	0.12189101
91	0xbc471f68	-0.012153484
92	0x3dda999b	0.10673829
93	0x3e086561	0.13319923
94	0x3a9e52f2	0.0012079163
95	0x3db2e5b0	0.08735216
96	0x3c08695f	0.008325904
97	0x3ded740c	0.115944
98	0x3de71d53	0.1128489
99	0x3dbf5f81	0.09344388
100	0x3d784dcf	0.06062108
101	0xbbf911f8	-0.007601019
102	0xbc456b45	-0.012049501
103	0x3d4f9669	0.05068055
104	0xbd79432b	-0.060855072
105	0x3d6c259d	0.05765306
106	0xbcd375e7	-0.025813056
107	0xbd0b3741	-0.03398824
108	0xbca66bcf	-0.020315079
109	0x3d9d1b85	0.076712646
110	0xbd4b3c4e	-0.049618058
111	0xbd916e78	-0.07101148
112	0xbd66fa9a	-0.056391336
113	0x3d91509f	0.070954554
114	0x3d8a96ba	0.0676703
115	0xbcec77e0	-0.028865755
116	0xbdaacaec	-0.083394855
117	0x3b6365d8	0.0034698155
118	0x3dbbb718	0.09165782
119	0xbd2d5c6c	-0.04232447
120	0x3d0dc40f	0.034610804
121	0xbafd1806	-0.0019309528
122	0xbb70d4ba	-0.0036747889
123	0xbda65852	-0.081223145
124	0x3cf10e59	0.029425787
125	0x3d1c04bb	0.03809045
126	0x3d048a68	0.032358557
127	0x3c492997	0.012277982
128	0xbd00328a	-0.031298198
129	0x3dae4ab5	0.08510343
130	0xbd3f78f4	-0.04674621
131	0x3caca6c9	0.021075623
132	0xbda74ec1	-0.08169318
133	0x3d93c23d	0.072147824
134	0x3d933e5a	0.07189627
135	0xbd299322	-0.041400082
136	0xbd886303	-0.0665951
137	0x3d498996	0.049203478
138	0xbd8afa49	-0.06786019
139	0xbbae9c93	-0.0053287237
140	0xbc80e26a	-0.015732963
141	0xbce5d599	-0.028055953
142	0x3c80292e	0.015644636
143	0x3cb5cf99	0.022193717
144	0xbbd9bd0d	-0.006644851
145	0xbcb948ab	-0.022617659
146	0x3da5d0c4	0.080964595
147	0xbd5e4898	-0.05426845
148	0x3d9301d0	0.0717808
149	0x3d748fe6	0.059707545
150	0xbd42aac5	-0.04752614
151	0x3d6f59a8	0.058435112
152	0xbd0df578	-0.034657925
153	0x3d57c2ca	0.052676
154	0x3da3f7e9	0.080062695
155	0xbbdd1b09	-0.0067476076
156	0xbdadb2da	-0.08481379
157	0x3d935948	0.071947634
158	0xbd71986e	-0.05898326
159	0x3c54238a	0.012947926
160	0xbb001e4f	-0.0019549315
161	0x3dc47e2e	0.09594379
162	0xbba5f343	-0.0050643994
163	0x3da90785	0.08253387
164	0xbd71c40f	-0.059024867
165	0xb80b930e	-3.3277138e-05
166	0xbd748fdd	-0.05970751
167	0x3d2f1473	0.04274411
168	0xbd5c4919	-0.05378065
169	0x3cbf71f7	0.023369772
170	0xbc3b0f80	-0.01141727
171	0x3d2251bd	0.039628733
172	0x3dac2843	0.08406117
173	0x3d14f316	0.036364637
174	0xbd0b4ac4	-0.03400685
175	0xbdba88d4	-0.09108129
176	0x3dbcd595	0.09220425
177	0x3be7b8b8	0.0070715807
178	0xbc42d3f1	-0.011891351
179	0xbce5d41b	-0.028055241
180	0x3ca29407	0.019845976
181	0xbd0ae502	-0.033909805
182	0xbd9aeb38	-0.07564396
183	0x3d9e5f20	0.077329874
184	0x3d756118	0.05990705
185	0x3dbafc4b	0.09130152
186	0x3db222bc	0.08698031
187	0x3da3bed0	0.07995379
188	0xbd9a7200	-0.07541275
189	0x3db2cacc	0.08730087
190	0x3d7e5e1c	0.06210147
191	0x3c65646a	0.014000991
192	0x3cea8306	0.02862693
193	0xbdbbd4ff	-0.09171485
194	0x3dbe40ec	0.092897266
195	0xbd3cd755	-0.046103794
196	0xbd51dea1	-0.051237706
197	0xbd32c8e4	-0.043648615
198	0x3d99c15e	0.07507585
199	0x3c6a08b2	0.0142843
200	0x3da306bc	0.07960269
201	0x3e0f76f5	0.14010222
202	0x3b11f3ba	0.0022270516
203	0xbcc86422	-0.02446181
204	0x3d930a5c	0.0717971
205	0x3e0152ab	0.12629192
206	0x3bacdef1	0.0052756
207	0x3d77dfd3	0.06051619
208	0x3dec482a	0.11537202
209	0xbcacaccc	-0.02107849
210	0x3cf61930	0.030041307
211	0x3d341cbf	0.043972727
212	0x3dc375ec	0.09543976
213	0x3e15d67c	0.146326
214	0x3e38cfff	0.18048094
215	0x3dc7a0f3	0.097474955
216	0x3e2fb079	0.17157163
217	0x3e28ba2b	0.16477267
218	0x3de40a57	0.11134785
219	0x3e00d016	0.12579378
220	0x3d37aac8	0.044840604
221	0xbdb1bbfe	-0.08678435
222	0xbb145a08	-0.002263667
223	0xbc49a263	-0.012306782
224	0xbd707140	-0.058701754
225	0xbc9e237d	-0.019304032
226	0x3daa40b5	0.08313123
227	0xbd8ca550	-0.06867468
228	0x3b05e671	0.0020431543
229	0xbda59505	-0.08085064
230	0xbccff2cc	-0.02538433
231	0xbdc3814c	-0.09546146
232	0xbc0a55fe	-0.008443354
233	0x3b69e2b0	0.0035688095
234	0xbda3a453	-0.07990327
235	0xbd9e082e	-0.07716404
236	0xbd8d6d3f	-0.06905603
237	0x3d6538c0	0.055962324
238	0x3c8afd7f	0.01696658
239	0x3d47bf84	0.048766628
240	0xbd027cf0	-0.03185743
241	0xbd3abb72	-0.045588918
242	0xbe0c1438	-0.13679588
243	0xbe2271d9	-0.15863742
244	0xbde46d0a	-0.1115361
245	0xbc32082a	-0.010866204
246	0xbd86b4df	-0.06577467
247	0xbe0d43f0	-0.13795447
248	0xbba485bd	-0.0050208257
249	0x3c79d3b5	0.015248229
250	0xbdca4d76	-0.09878056
251	0xbe0644e2	-0.13112214
252	0xbd3eef88	-0.046615154
253	0xbda96c38	-0.08272594
254	0xbd41ad8d	-0.04728465
255	0x3c8addeb	0.016951522

lstm_net.0.xh.bias f4 [432]
0	0xbdf4de1d	-0.11956427
1	0xbd3e7c37	-0.04650518
2	0x3d41c464	0.047306433
3	0x3d4d7854	0.050163582
4	0x3d881fe0	0.06646705
5	0x3d86f785	0.06590179
6	0xbcfd9836	-0.030956369
7	0x3dbf9670	0.093548656
8	0x3c96a74f	0.018390326
9	0x3de764fa	0.112985566
10	0x3cd44eb2	0.025916431
11	0x3d6cf5c9	0.057851586
12	0x3db0b8aa	0.08628972
13	0xbde4451a	-0.111459926
14	0x3de766a5	0.11298875
15	0xbd3508d5	-0.044197876
16	0xbc9cbec5	-0.019133935
17	0x3c0edea6	0.008720076
18	0x3d8a5c32	0.06755866
19	0x3e4bf220	0.19916582
20	0xbda907fb	-0.08253475
21	0x3c09d1d1	0.008411841
22	0xbe16ea68	-0.14737856
23	0x3e2c35ac	0.16817349
24	0xbdf48b58	-0.1194064
25	0xbb883010	-0.00415612
26	0xbd4ac56a	-0.049504675
27	0xbdcb8459	-0.09937353
28	0x3d08e917	0.033425417
29	0x3d51bf2a	0.0512077
30	0x3d942e50	0.07235396
31	0x3e51d9af	0.20493196
32	0x3c135f0d	0.00899483
33	0xbd93a9bf	-0.07210111
34	0x3dddcea6	0.10830431
35	0x3d0b6234	0.0340292
36	0xbe4cea7d	-0.20011325
37	0x3dfcf06e	0.12350546
38	0xbdbace30	-0.091213584
39	0x3d6a1a98	0.057154268
40	0xbd7607b2	-0.060065933
41	0xbdc584e5	-0.09644488
42	0x3d67858c	0.056523845
43	0xbdad6ad4	-0.084676415
44	0xbe4ef39f	-0.20210122
45	0x3de7f6f6	0.11326401
46	0x3b9f347e	0.0048585525
47	0x3dd07c5d	0.101799704
48	0xbd53e002	-0.051727302
49	0xbd1f8910	-0.038949072
50	0x3dc56c09	0.09639747
51	0x3d93da25	0.07219342
52	0x3daacca5	0.08339814
53	0xbd2b81cd	-0.041871835
54	0x3c89b5cd	0.016810322
55	0xbd2eea60	-0.042703986
56	0xbca6121e	-0.02027231
57	0x3d1c00cd	0.0380867
58	0x3d31f203	0.04344369
59	0x3cf73d6b	0.030180654
60	0x3e25b09c	0.16180652
61	0xbd516aa8	-0.051127106
62	0x3d17a3ac	0.037021324
63	0x3c3998cd	0.011327934
64	0xbd44a046	-0.04800441
65	0x3b320409	0.002716305
66	0xbcc29d52	-0.023756657
67	0x3c74c8d4	0.014940459
68	0x3dee8e1b	0.11648198
69	0xbc12dde9	-0.00896404
70	0xbdd925c1	-0.10602904
71	0x3c9e30b6	0.019310337
72	0x3d1fe7cb	0.039039414
73	0x3d9f3810	0.07774365
74	0xbde15881	-0.11003209
75	0x3dccf4b3	0.1000761
76	0x3c8cc889	0.017185466
77	0xbe27d7d1	-0.16390921
78	0x3d4213c5	0.047382135
79	0xbcb92148	-0.022598878
80	0x3dbf1a42	0.0933118
81	0xbda31210	-0.079624295
82	0x3e166af2	0.14689234
83	0x3decaa58	0.11555928
84	0xbdb200ea	-0.086915806
85	0xbd798c14	-0.060924605
86	0xbc6033b4	-0.013684202
87	0x3d6f3c2d	0.058406997
88	0xbd9987a6	-0.07496576
89	0x3e13ac5e	0.14421222
90	0x3db21222	0.08694865
91	0x3a405851	0.0007337379
92	0xbb52c7c3	-0.0032162524
93	0xbda59418	-0.08084887
94	0xbdfba39d	-0.12287066
95	0x3cd71533	0.026255226
96	0x3d81dca2	0.063409105
97	0xbdbdfd7f	-0.09276866
98	0xbe2b2ebd	-0.16717048
99	0xbe5061e1	-0.20349838
100	0xbb705f14	-0.0036677765
101	0xbcc8cade	-0.024510797
102	0x3d8e65b6	0.069529936
103	0x3db42fd7	0.08798187
104	0x3b3871e7	0.0028144063
105	0x3e01c70a	0.12673584
106	0xbe4b762f	-0.19869302
107	0xbe041774	-0.12899572
108	0x3d5ff412	0.054676123
109	0x3c41094e	0.011782004
110	0x3d3641f3	0.044496488
111	0xbdb7d2b3	-0.089757346
112	0xbcb51a53	-0.022107279
113	0xbe03501d	-0.1282353
114	0xbe065a89	-0.13120474
115	0xbd3d0795	-0.04614981
116	0x3e2df3e8	0.16987574
117	0xbd4d8d91	-0.050183836
118	0x3db86bf8	0.090049684
119	0x3d33596a	0.043786444
120	0xbe0debdb	-0.13859503
121	0x3ce9a2e3	0.028520053
122	0xbcf43c30	-0.029813856
123	0xbd355d1a	-0.04427824
124	0xbdc08354	-0.09400049
125	0x3d250977	0.04029223
126	0x3d91e378	0.07123464
127	0xbbbd481b	-0.005776418
128	0x3da0e153	0.07855477
129	0x3da99235	0.0827984
130	0xbcff1c9c	-0.031141572
131	0x3e09b8e0	0.1344943
132	0xbe84f900	-0.25971222
133	0x3daa73b6	0.08322851
134	0x3d466c2d	0.04844301
135	0x3d320e14	0.043470457
136	0xbdd77ba1	-0.10521627
137	0xbc680e0a	-0.014163503
138	0xbd83b402	-0.06430818
139	0x3c52f845	0.012876575
140	0xbd80e0da	-0.06292887
141	0x3df0c03e	0.11755417
142	0x3df83b3f	0.12120675
143	0xbdb1d605	-0.08683399
144	0x3e3fe057	0.18737923
145	0x3dab9822	0.083786264
146	0x3d8741ed	0.06604371
147	0x3d2b5a8b	0.041834395
148	0xbddb7fb6	-0.10717718
149	0xbd101fb3	-0.03518648
150	0xbd8f04e8	-0.06983358
151	0x3b84e273	0.004055315
152	0x3d3b5a16	0.04574021
153	0x3cc58114	0.0241094
154	0xba9df328	-0.0012050616
155	0x3e17a18e	0.14807722
156	0xbddd9a13	-0.10820403
157	0xb9c35b1b	-0.00037261177
158	0xbb33a125	-0.0027409282
159	0xbdb48da5	-0.08816079
160	0x3d8cc61a	0.068737224
161	0xbd787502	-0.060658462
162	0x3cdd4008	0.027008072
163	0x3e0a484d	0.13504143
164	0xbce3dec2	-0.02781618
165	0x3c46085e	0.012086956
166	0x3c5584b2	0.013032125
167	0xbc26b777	-0.010175577
168	0x3c13b82e	0.00901608
169	0xbaa6f10d	-0.0012736634
170	0x3dd1b114	0.10238853
171	0x3d8730c5	0.06601099
172	0x3c8eb181	0.017418625
173	0x3d6a52bf	0.05720782
174	0xbddd42b8	-0.10803741
175	0xbdb47ee6	-0.088132665
176	0xbd5e1ad3	-0.0542248
177	0xbd87b7d3	-0.066268586
178	0xbd6319d6	-0.05544456
179	0xbc9ed9f3	-0.019391036
180	0xbd53ce52	-0.051710434
181	0xbc5c6401	-0.013451577
182	0xbd8525e8	-0.06501371
183	0x3dd3d5b2	0.103434935
184	0xbdddf4a0	-0.10837674
185	0x3d64a718	0.055823416
186	0x3e1e5e9e	0.15465781
187	0x3df4d264	0.11954191
188	0xbda8a84a	-0.082352236
189	0x3d6847e9	0.056709204
190	0xbe083096	-0.13299784
191	0xbd461226	-0.04835715
192	0xbd458549	-0.048222814
193	0x3e09f895	0.13473733
194	0xbdb3585b	-0.08757087
195	0xbd3e56ec	-0.046469614
196	0xba68cc7d	-0.0008880569
197	0x3db28f99	0.08718795
198	0x3c4bbcbc	0.0124351345
199	0xbd32a28b	-0.043612044
200	0xbd494287	-0.04913571
201	0x3e321352	0.17390183
202	0xbccc29a1	-0.024922194
203	0xbdfb0431	-0.12256659
204	0xbc02ea4d	-0.007990432
205	0xbd299aed	-0.041407514
206	0xbdffbcc9	-0.1248718
207	0xbd93aaac	-0.072102875
208	0xbc91cc9c	-0.01779776
209	0xbd8bb6e9	-0.06821997
210	0xbd91b5b5	-0.07114736
211	0x3da4b5bd	0.08042476
212	0xbdea040b	-0.114265524
213	0x3d8cc981	0.06874371
214	0xbb8e7dff	-0.004348516
215	0x3e0cd79f	0.13754128
216	0xbdd031cb	-0.10165747
217	0xbd85c86a	-0.065323666
218	0x3d93eb77	0.07222646
219	0xbd8fd17d	-0.070223786
220	0x3d42bcf2	0.047543474
221	0x3ddaa758	0.106764495
222	0x3c84394f	0.016140608
223	0xbd5c44f7	-0.053776708
224	0x3d0c8932	0.034310527
225	0x3d92cf0b	0.071683966
226	0x3d0f16ce	0.034933858
227	0x3c122325	0.008919512
228	0x3dc61f9c	0.09673998
229	0x3d086a39	0.033304427
230	0x3d9ba7a6	0.07600336
231	0xbd802a10	-0.06258023
232	0xbd44e046	-0.048065446
233	0x3e01c34b	0.12672155
234	0x3d87cc4d	0.06630764
235	0xbd789cf2	-0.06069655
236	0xbd8b6f2c	-0.06808314
237	0xbcb2b778	-0.021816
238	0x3d672cae	0.056439094
239	0x3e131a9b	0.14365618
240	0x3d1827ca	0.03714732
241	0x3d60fc16	0.054927908
242	0x3d922b01	0.071371086
243	0xbc5409b3	-0.012941766
244	0xbda77848	-0.08177239
245	0x3dfd4953	0.12367501
246	0xbd885622	-0.066570535
247	0x3cccae2b	0.024985394
248	0xbd0eec5f	-0.03489339
249	0xbe15cfa8	-0.14629996
250	0xbe041095	-0.1289695
251	0xbb9d97fc	-0.0048093777
252	0x3e3b015d	0.18262239
253	0x3d7811ff	0.060564037
254	0xbdc29782	-0.09501554
255	0xbdc46fa3	-0.095916055

lstm_net.0.hh.weight f4 [432, 108]
0	0xbd65560d	-0.055990268
1	0x3b43015c	0.002975545
2	0xbda913ed	-0.08255754
3	0x3da691b7	0.08133262
4	0x3db80b8f	0.089865796
5	0x3da42c01	0.080162056
6	0xbd190ce4	-0.03736581
7	0xbd31fb73	-0.04345269
8	0x3c48624b	0.012230466
9	0xbd53535e	-0.051593177
10	0xbd94a04f	-0.07257139
11	0xbd57f4e3	-0.052723777
12	0xbdaaebcc	-0.08345756
13	0x3d7b8eff	0.06141567
14	0x3c55437e	0.01301658
15	0xbdb4f403	-0.08835604
16	0xbcea6c00	-0.028615952
17	0x3d971031	0.07376135
18	0x3d046525	0.03232302
19	0xbd6f79cb	-0.05846576
20	0xbc30ac08	-0.010783203
21	0x3d8014bb	0.06253954
22	0xbd924a31	-0.07143057
23	0x3a144616	0.00056561956
24	0x3d6f39d1	0.058404747
25	0x3d5963ff	0.05307388
26	0x3d6bb7cf	0.05754834
27	0xbdaf7817	-0.08567827
28	0x3b6151e9	0.0034381098
29	0x3d7c4496	0.061588846
30	0xbca7bf19	-0.020476865
31	0x3cffcd4e	0.031225827
32	0x3b9f7403	0.0048661246
33	0x3da378c4	0.079820186
34	0xbdb930ac	-0.090424865
35	0x3dac0a62	0.08400418
36	0xbd238497	-0.03992137
37	0x3bcb8e00	0.006211996
38	0x3db3ad5f	0.08773302
39	0xbc20ebd2	-0.009821849
40	0x3dc1922f	0.094517104
41	0x3d36e974	0.044656232
42	0x3d8af515	0.06785027
43	0x3d4915f5	0.049093205
44	0xbd49aaea	-0.049235262
45	0xbd47e86d	-0.048805643
46	0xbdaa58ef	-0.08317744
47	0x3d4b38d7	0.049614754
48	0xbd8dd30b	-0.06925019
49	0xbd91646d	-0.07099233
50	0x3d6a97fa	0.057273842
51	0x3d080ba8	0.03321424
52	0xbd5b3333	-0.053515624
53	0xbd9cf74d	-0.076643564
54	0x3be554bb	0.006998626
55	0xbd28ac5a	-0.041179992
56	0x3c7e7d8d	0.015532863
57	0xbd5db2fa	-0.054125763
58	0x3d8aa6a6	0.06770067
59	0x3cfd35e8	0.030909494
60	0x3d8904d3	0.06690373
61	0x3ca3a7e1	0.019977512
62	0x3dbfbf95	0.09362713
63	0xbd8dd983	-0.06926253
64	0xbcc04f30	-0.02347526
65	0x3b97983c	0.004626302
66	0x3d8b038d	0.06787787
67	0xbd1eff4a	-0.03881768
68	0xbd796e79	-0.06089637
69	0x3dba9381	0.091101654
70	0xbdbc244f	-0.09186613
71	0x3ca78d3a	0.020453084
72	0x3cbde4a1	0.023180308
73	0x3ca962ed	0.020677054
74	0x3d932cac	0.07186255
75	0x3d63a13a	0.05557368
76	0x3c118a31	0.008883045
77	0xbce0dd7b	-0.02744936
78	0x3cf5d655	0.030009428
79	0xbcc573bd	-0.02410304
80	0x3d5bc4d6	0.053654514
81	0x3d240205	0.04004099
82	0xbd90e0a2	-0.07074095
83	0xbd8f3d25	-0.06994084
84	0x3cdca9e6	0.026936483
85	0xbce97ab1	-0.028500887
86	0xbdb3a5c3	-0.08771851
87	0xbd2d18d3	-0.042260002
88	0x3d17c4e8	0.03705302
89	0x3d45da1c	0.04830371
90	0x3daed447	0.085365824
91	0xbcac603b	-0.02104198
92	0x3d10dfff	0.03536987
93	0x3ae8d91b	0.0017764898
94	0xbcb906ec	-0.022586308
95	0xbd7fab19	-0.06241903
96	0x3db7c7f8	0.08973688
97	0x3d2b51cd	0.04182606
98	0x3c7e6d3e	0.015528975
99	0x3d202131	0.039094154
100	0xbdb53601	-0.08848191
101	0xbc1d5199	-0.009601974
102	0xbd9e4cba	-0.07729478
103	0xbd5fc909	-0.05463508
104	0x3d1e0244	0.03857638
105	0xbba8310d	-0.0051328004
106	0x3d9636fc	0.07334706
107	0xbc6d6e61	-0.014491648
108	0x3dadec82	0.08492376
109	0x3dbc5c6a	0.09197314
110	0x3d9c01f2	0.076175585
111	0xbd3c9244	-0.046037927
112	0x3d742bb8	0.059612006
113	0x3dc0008e	0.09375106
114	0xbdb61a2f	-0.08891713
115	0x3c8b83cd	0.017030621
116	0x3d218ae1	0.039439086
117	0x3bb87eb7	0.00563034
118	0x3d99e3af	0.0751413
119	0xbaa5ee5b	-0.0012659536
120	0xbbd12fd6	-0.0063838763
121	0x3dbca81d	0.092117526
122	0x3dbbbf16	0.09167306
123	0x3d615cc0	0.055020094
124	0xbc029893	-0.007970947
125	0x3d95252c	0.072824806
126	0x3d0ac864	0.033882514
127	0x3dbe73f8	0.09299463
128	0xbd9da376	-0.07697193
129	0x3dbc9588	0.09208208
130	0x3d661916	0.056176268
131	0x3d79e5a2	0.06101001
132	0x3b003317	0.0019561702
133	0xbcbd3eb6	-0.023101192
134	0x3d813b06	0.06310086
135	0x3dabd0bc	0.08389422
136	0xbd2a87c0	-0.041633368
137	0x3c5c9d2c	0.013465207
138	0x3d158864	0.036507025
139	0xbd18da4d	-0.037317563
140	0xbd681da3	-0.05666889
141	0xbdb3abba	-0.087729886
142	0xbdbeca6b	-0.09315952
143	0xbd1d5eed	-0.038420606
144	0xbdc4ef1c	-0.09615919
145	0xbd5d9d97	-0.054105368
146	0x3cdfc430	0.02731523
147	0xbbd9cd82	-0.006646813
148	0x3cc10af8	0.0235648
149	0xbce52bb0	-0.027974933
150	0x3d899664	0.06718138
151	0xbc9d3517	-0.019190354
152	0xbd9bac1c	-0.07601187
153	0xbd06d648	-0.0329192
154	0xbc7e563e	-0.015523491
155	0x3d4c9edc	0.049956188
156	0xbd13ef47	-0.036116865
157	0xbc99bf9b	-0.018768122
158	0xbd5f1173	-0.05446
159	0x3d7ce526	0.06174197
160	0xbcffcccd	-0.031225586
161	0x3b2eaa6e	0.0026651877
162	0xbd80a0f2	-0.06280698
163	0xbb250141	-0.002517775
164	0xbd9e595a	-0.07731886
165	0xbca33a0a	-0.019925136
166	0xbc9086ea	-0.017642457
167	0xbc13509e	-0.008991389
168	0x3d1a7301	0.037707333
169	0x3ce93261	0.028466405
170	0x3d7c960a	0.061666526
171	0xbc981f18	-0.018569514
172	0xbdc0ff90	-0.09423745
173	0xbc89be76	-0.016814452
174	0xbb95209d	-0.004551007
175	0x3d0d2b72	0.03446526
176	0x3ccaa5ee	0.024737325
177	0x39d83944	0.00041241397
178	0xbd7ba994	-0.06144102
179	0x3c5e74c6	0.013577646
180	0xbcf18b58	-0.02948539
181	0x3d936b95	0.07198254
182	0x3cc4f238	0.02404128
183	0x3d96453d	0.07337425
184	0x3d3aa5b7	0.045568194
185	0xbdb1e07b	-0.086853944
186	0xbd3a264a	-0.04544667
187	0x3d75357b	0.059865456
188	0x3d8bdb94	0.068289906
189	0xbc780740	-0.015138447
190	0x3d82b7b2	0.06382693
191	0xbdc2f51b	-0.095194064
192	0x3d197496	0.0374647
193	0xbb98ae9d	-0.0046594874
194	0xbd8f4010	-0.06994641
195	0x3cd188a1	0.025577845
196	0xbd81947f	-0.063271515
197	0x3a8a0511	0.0010530074
198	0xbdac60a5	-0.08416871
199	0x3daef82e	0.0854343
200	0x3d387a22	0.04503835
201	0xbdb6da0f	-0.0892831
202	0x3da57c3d	0.08080337
203	0x3ce63b5b	0.028104475
204	0x3dc0aa87	0.094075255
205	0x3d39ffcf	0.045409974
206	0x3d72af98	0.05924949
207	0x3db7daf1	0.08977307
208	0xbd6ac75b	-0.057319026
209	0x3d73b8c4	0.059502378
210	0xbdb837bf	-0.08995008
211	0xbcedbeeb	-0.0290217
212	0xbbb07eaa	-0.0053861933
213	0x3dbab6a9	0.09116871
214	0x3d8d4396	0.068976566
215	0xbcbfec70	-0.023428172
216	0x3d97fe01	0.07421494
217	0xbdad5647	-0.08463722
218	0xbcecb9ef	-0.028897254
219	0x3d35a58c	0.04434733
220	0x3cbdae30	0.023154348
221	0x3d402003	0.04690553
222	0xbdc1155e	-0.094279036
223	0x3dc1f45c	0.09470436
224	0xbd8d632c	-0.06903681
225	0x3dacfa15	0.08446137
226	0x3d6554c4	0.055989042
227	0x3da8f98b	0.082507215
228	0x3d81d303	0.063390754
229	0xbdc209a9	-0.09474499
230	0xbcaa60cb	-0.020798108
231	0xbd121951	-0.035668675
232	0xbb084bf9	-0.0020797236
233	0xbda8a18a	-0.08233936
234	0x3c80ea0a	0.015736599
235	0xbd480af8	-0.048838586
236	0xbdaf4bfa	-0.08559413
237	0xbd8f8f3a	-0.0700974
238	0xbbc50d4e	-0.006013549
239	0xbd8e16ed	-0.069379665
240	0x3c413254	0.011791784
241	0xbd2c67d5	-0.04209121
242	0xbd164e3e	-0.03669571
243	0xbd2ba3b3	-0.041904163
244	0xbda2602f	-0.07928502
245	0xbd52ea7f	-0.051493164
246	0xbdc14ca0	-0.09438443
247	0xbdbf148a	-0.093300894
248	0xbd1aca0d	-0.037790347
249	0xbda218d1	-0.079148896
250	0x3db7bf5b	0.08972045
251	0xbdc16c72	-0.094445124
252	0x3d72bf0c	0.059264228
253	0xbd73c3d2	-0.05951292
254	0x3daafec4	0.08349374
255	0xbd7a955a	-0.06117759

lstm_net.0.hh.bias f4 [432]
0	0x3b1a00ea	0.002349908
1	0xbcde11d8	-0.027108118
2	0x3c94dec5	0.018172631
3	0x3db1222b	0.08649095
4	0x3d7d68eb	0.061867636
5	0x3cccdf0e	0.025008705
6	0xbcd90afa	-0.026494492
7	0x3c8ce226	0.01719768
8	0x3dd69b18	0.104788005
9	0x3e1a1b8f	0.15049575
10	0x3d39d376	0.04536768
11	0xbdcc07b0	-0.09962404
12	0x3e56b533	0.2096756
13	0xbdd00a62	-0.1015823
14	0x3a67a82d	0.0008837011
15	0x3d2b97bb	0.04189275
16	0x3dff239e	0.12457965
17	0xbc860845	-0.016361365
18	0xbd748ff0	-0.059707582
19	0x3e41f5ea	0.18941465
20	0x3c86e765	0.01646776
21	0xbc91db23	-0.017804688
22	0xbe5d1bb0	-0.21592593
23	0x3e039e40	0.12853336
24	0xbe5d10f3	-0.21588497
25	0x3df246ea	0.11829932
26	0xbcd9f79d	-0.026607329
27	0xbb354f36	-0.0027665622
28	0xbb82dc3f	-0.0039935405
29	0x3d926fda	0.0715024
30	0x3d7b6851	0.06137878
31	0x3dc2448e	0.09485732
32	0xbdc3ddfe	-0.09563826
33	0x3c64d3df	0.01396653
34	0x3dfee426	0.124458596
35	0xbe01acf0	-0.12663627
36	0xbe3530dc	-0.1769442
37	0x3e1b51b5	0.15167888
38	0xbdbfe621	-0.093700655
39	0xbca9cd1c	-0.020727687
40	0xbd8fc159	-0.070193
41	0xbd267dbe	-0.04064726
42	0x3d033ace	0.032038502
43	0xbd78a57e	-0.0607047
44	0xbd32c8b0	-0.04364842
45	0x3dace937	0.0844292
46	0x3dd2363e	0.10264252
47	0x3dad1e66	0.08453064
48	0xbe5af9a1	-0.21384288
49	0xbcb6c00f	-0.022308378
50	0x3da35b9f	0.0797646
51	0x3d97568e	0.07389556
52	0xbdc0d34e	-0.09415303
53	0xbd36e790	-0.04465443
54	0x3d38c059	0.045105312
55	0xbd9722cf	-0.07379686
56	0x3d993eb8	0.07482666
57	0x3c9840ca	0.018585581
58	0x3b6ba274	0.0035954984
59	0xbcef7d6d	-0.029234612
60	0x3d1687a4	0.03675045
61	0xbd4eaf34	-0.050460055
62	0x3d95f305	0.07321743
63	0xbdbace17	-0.0912134
64	0xbc8d301a	-0.01723485
65	0xbd12f350	-0.035876572
66	0x3b9c130a	0.004763012
67	0x3cffd07b	0.03122734
68	0xbc66c5bb	-0.014085229
69	0x3d1a762c	0.037710354
70	0xbd11dfc0	-0.035613775
71	0xbc3b97b4	-0.011449743
72	0xbdc3df4f	-0.09564077
73	0x3ccf9aa3	0.025342291
74	0xbdbd1d73	-0.092341326
75	0x3d95f5bf	0.07322263
76	0x3c494093	0.012283462
77	0xbddad822	-0.10685755
78	0x3cf8292a	0.030293066
79	0xbd0bbbfb	-0.03411482
80	0xbd23e7f8	-0.040016145
81	0x3c5f0fbd	0.013614592
82	0x3d435a77	0.047693696
83	0xbd32bf57	-0.043639507
84	0x3ce77779	0.028255211
85	0x3d204020	0.039123654
86	0x3cdfb5a7	0.027308298
87	0x3cad8182	0.021179918
88	0xbc00ddff	-0.007865428
89	0x3dbcd5e8	0.09220487
90	0x3b853b49	0.004065905
91	0xbb875c13	-0.004130849
92	0xbde6e9cc	-0.11275062
93	0xbddf1a4d	-0.10893688
94	0x3b8a0de3	0.004213081
95	0x3d58cb6d	0.052928377
96	0x3b3b19c5	0.0028549295
97	0xbe4b8cdd	-0.19877954
98	0xbd73e501	-0.059544567
99	0xbe0f6f0b	-0.14007203
100	0x3dd11a5b	0.10210105
101	0xbd780bb0	-0.06055802
102	0xbbda2043	-0.006656678
103	0x3d5cb78c	0.05388598
104	0xbde51c35	-0.11187021
105	0x3da158cf	0.07878267
106	0xbe3c0b7f	-0.1836376
107	0xbd0c9361	-0.03432024
108	0x3d5d5976	0.054040395
109	0x3dbaa3e9	0.09113295
110	0xbdf0dbd8	-0.11760682
111	0xbdbaa1c7	-0.09112888
112	0x3db78f08	0.08962828
113	0xbe1ee2e5	-0.15516241
114	0xbdb2a72d	-0.087232925
115	0xbba39ca5	-0.0049930387
116	0x3d1d017f	0.038331505
117	0xbe482e89	-0.19549002
118	0x3ce1ab1d	0.027547413
119	0xbdaa49f8	-0.0831489
120	0xbd3f1c6f	-0.046657976
121	0xbd004b8f	-0.03132206
122	0x3dd98a6c	0.10622105
123	0x3d26404d	0.040588666
124	0xbcc6359c	-0.024195485
125	0x3d7da145	0.061921377
126	0xbb14f431	-0.0022728557
127	0xbd35c100	-0.044373512
128	0xbd19222c	-0.037386104
129	0x3e0c5b32	0.13706663
130	0xbd59b273	-0.053148698
131	0xbbbcb29d	-0.005758597
132	0xbe9600b3	-0.29297408
133	0x3e0dca49	0.13846697
134	0x3d55a031	0.052154724
135	0xbd8dd582	-0.06925489
136	0xbe302aa0	-0.1720376
137	0x3db3f670	0.087872386
138	0xbe0c9339	-0.13728036
139	0x3d16d671	0.0368256
140	0xbc84229e	-0.016129788
141	0x3dfd2d28	0.123621285
142	0x3e04f658	0.12984598
143	0xbe02196d	-0.12705012
144	0x3cc0e87b	0.023548355
145	0x3e021e38	0.1270684
146	0xbd9482b2	-0.07251491
147	0x3d55ab39	0.052165244
148	0xbde92db3	-0.113856696
149	0xbcb7723b	-0.022393337
150	0xbd7033ca	-0.05864314
151	0xbe21aba0	-0.15788126
152	0xbdde8284	-0.10864738
153	0x3e1c2d62	0.15251687
154	0x3d7db2ab	0.06193797
155	0x3a659985	0.0008758533
156	0xbe4cd4fb	-0.2000312
157	0xbdfe19a6	-0.12407236
158	0x3dba954d	0.09110508
159	0x3d4a5dd5	0.04940589
160	0x3d48a357	0.048983898
161	0xbb9c97a5	-0.0047788196
162	0x3dad8e1c	0.08474371
163	0x3daf9ded	0.08575044
164	0xbca5ab57	-0.020223303
165	0x3e180bc3	0.14848237
166	0x3c68111e	0.014164237
167	0x3d8a6385	0.06757263
168	0x3db9fc8d	0.09081373
169	0x3d783547	0.060597684
170	0x3babe06a	0.005245258
171	0xbd5f7536	-0.05455514
172	0xbcbd723f	-0.023125766
173	0x3c836dd6	0.016043585
174	0x3be473ca	0.006971811
175	0xbd894350	-0.06702292
176	0xbd0c51d1	-0.034257714
177	0xbe04f601	-0.12984468
178	0x3cb308f8	0.021854863
179	0xbdac381c	-0.084091395
180	0xbd989d11	-0.07451833
181	0xbdab0fb7	-0.08352607
182	0xbcffe040	-0.03123486
183	0x3dd17c4f	0.10228788
184	0x3c90e117	0.017685456
185	0xbce32b3b	-0.027730575
186	0x3e0c9b24	0.13731056
187	0x3c9d6f87	0.01921822
188	0xbd11e594	-0.035619333
189	0xbbe56aaa	-0.0070012407
190	0xbd1d0724	-0.038336888
191	0xbda62107	-0.08111768
192	0xbc6c344c	-0.014416765
193	0x3e1f7669	0.15572514
194	0xbe075f6d	-0.13219996
195	0xbd4f4261	-0.050600413
196	0xbd3559ab	-0.044274967
197	0x3c7f0e6b	0.015567402
198	0x3ce793b0	0.028268665
199	0x3d631b3d	0.0554459
200	0xb9d0fc3d	-0.00039860784
201	0x3e30b422	0.17256215
202	0xbdb815c6	-0.08988528
203	0x3d2f3025	0.042770524
204	0x3d467885	0.04845478
205	0xbd41b1d0	-0.047288716
206	0xbd1bb90a	-0.038018264
207	0x3da43073	0.080170535
208	0xbd8f7b70	-0.07005966
209	0xbd194ff2	-0.037429757
210	0xbdaa4c05	-0.08315281
211	0xbdc63811	-0.096786626
212	0xbd461fb4	-0.04837008
213	0x3e1988c0	0.14993572
214	0xbd7e04cb	-0.06201629
215	0x3dabcbf7	0.083885126
216	0xbe2ae06a	-0.1668717
217	0xbb6a2bd2	-0.0035731685
218	0x3e2ab735	0.1667145
219	0x3db62e0b	0.08895501
220	0xbd9e3ea9	-0.07726795
221	0x3d87c10e	0.06628619
222	0x3c27825c	0.010223951
223	0xbdfd8d39	-0.12380452
224	0x3c45a039	0.012062126
225	0x3de36a86	0.11104302
226	0x3d4597bd	0.048240412
227	0xbcce139f	-0.02515584
228	0x3e0ae9cc	0.13565749
229	0xbd05b2f6	-0.032641374
230	0x3d19bd2f	0.037533935
231	0x3c18e36e	0.009331567
232	0x3d73e03e	0.059540026
233	0x3df97821	0.12181116
234	0x3d8fa432	0.0701374
235	0xbd61a8fa	-0.05509279
236	0x3cf4f40f	0.029901532
237	0x3c52ac63	0.012858483
238	0x3c989957	0.018627806
239	0x3c86e53e	0.016466733
240	0xbda193d7	-0.07889526
241	0x3db6af11	0.0892011
242	0x3da3fba3	0.0800698
243	0xbd90b1af	-0.070651405
244	0xbe022a06	-0.12711343
245	0x3d0058dd	0.031334747
246	0xbdb03f81	-0.086058624
247	0x3d2e4d40	0.04255414
248	0x3cb829df	0.022480903
249	0xbe005c09	-0.12535109
250	0xbc003ce1	-0.007827015
251	0x3cf1ca28	0.02951534
252	0x3e8aa07f	0.27075574
253	0xbd3eb627	-0.046560433
254	0xbc85ff3e	-0.01635706
255	0xbd256e88	-0.040388614

linear.weight f4 [4, 108]
0	0xbbb35d7f	-0.005473792
1	0x3c00f541	0.007870973
2	0x3d53167b	0.05153511
3	0x3dd44c14	0.10366073
4	0xbc53f940	-0.012937844
5	0x3cfd12fe	0.030892845
6	0x3d5dadfd	0.054121006
7	0x3d5eeb97	0.054423895
8	0xbd28e8fa	-0.04123781
9	0xbcf799a0	-0.030224621
10	0x3d27a41b	0.040927988
11	0x3d819a6b	0.06328281
12	0x3d35235e	0.044223182
13	0x3da32cfb	0.07967564
14	0xbdb04949	-0.08607728
15	0xbac53b73	-0.0015047624
16	0xbe5e526b	-0.21711127
17	0x3d07686d	0.033058573
18	0xbe3a790a	-0.18210235
19	0xbda0f3d2	-0.07859005
20	0x3d376c65	0.044781107
21	0x3cc674f0	0.024225682
22	0x3e23f083	0.16009717
23	0x3ce18184	0.027527578
24	0xbdcac370	-0.09900558
25	0x3e982922	0.29718882
26	0xbdf677ae	-0.12034546
27	0xbe41d6db	-0.18929617
28	0x3d324e19	0.04353151
29	0xbd572b5b	-0.05253158
30	0x3d6cf1f5	0.057847936
31	0x3bb7906c	0.005601933
32	0x3ddaf280	0.106907845
33	0xbdd566fe	-0.10420035
34	0x3dff4e09	0.12466056
35	0xbd3ea2f0	-0.046542108
36	0xbc3fa7e8	-0.011697747
37	0x3e8b2582	0.27177054
38	0xbd5f4391	-0.054507796
39	0x3c1e570f	0.009664311
40	0xbdc99944	-0.09843686
41	0x3dcf7ab2	0.10130824
42	0x3cb9f9c4	0.022702105
43	0x3d9c890e	0.076433286
44	0x3da7a4a2	0.08185698
45	0xbdf46db7	-0.11934989
46	0xbb7a959a	-0.0038236142
47	0x3d29ad66	0.04142513
48	0xbde25a7e	-0.11052416
49	0xbd830388	-0.06397158
50	0x3db52130	0.08844221
51	0xbdba9c84	-0.09111884
52	0xbdbe2b04	-0.09285548
53	0x3d805467	0.062660985
54	0xbd407b3e	-0.046992533
55	0xbdd5f098	-0.1044628
56	0x3e1086eb	0.14113967
57	0xbd990993	-0.07472529
58	0x3d168758	0.036750168
59	0x3d1f1479	0.038837884
60	0xbe056850	-0.13028073
61	0xbdaf2b72	-0.085532084
62	0x3d53bb4e	0.0516923
63	0xbe2aa256	-0.16663489
64	0x3b0bb19e	0.0021315585
65	0xbcc7cf4d	-0.02439084
66	0xbb8024a1	-0.0039106165
67	0xbd0ab3c6	-0.03386285
68	0xbd91bf97	-0.07116621
69	0xbdbc5ae8	-0.091970265
70	0xbdca16c6	-0.09867625
71	0xbdb8b6e6	-0.0901926
72	0xbe77714e	-0.24164316
73	0x3cec1d88	0.028822675
74	0x3e58e3ed	0.21180697
75	0xbe15f19a	-0.14642945
76	0x3e53a332	0.20667723
77	0x3d8ed8e3	0.069749616
78	0x3d3674af	0.044544872
79	0x3df5121e	0.11966346
80	0x3b734680	0.0037120879
81	0xbe4bb7a9	-0.1989428
82	0xbda90fce	-0.08254968
83	0xbceb3eba	-0.028716434
84	0x3da054ee	0.07828699
85	0x3b78ed13	0.0037983104
86	0xbd4310fe	-0.047623627
87	0x3e801c61	0.2502165
88	0x3c57b9f1	0.0131668905
89	0xbdc4cb6f	-0.096091144
90	0x3d674a77	0.0564675
91	0x3dec8c80	0.11550236
92	0xbdbad23a	-0.09122129
93	0xbe4bebbb	-0.19914143
94	0xbd4d7618	-0.05016145
95	0xbddd8c0e	-0.10817729
96	0x3e2453dd	0.16047616
97	0xbd96fa50	-0.07371962
98	0xbd93930a	-0.0720578
99	0x3de31dc6	0.11089663
100	0x3e676a1b	0.2259907
101	0xbdc7cd80	-0.09755993
102	0x3c675c34	0.014121104
103	0xbe43d310	-0.19123483
104	0xbd470d6b	-0.04859678
105	0x3e053072	0.13006762
106	0x3de95a9b	0.11394235
107	0x3df46961	0.11934162
108	0xbd9b8921	-0.07594515
109	0xbd865f24	-0.065611154
110	0x3df796cd	0.1208931
111	0x3c89f549	0.016840594
112	0xbdd9254b	-0.10602816
113	0xbda83b53	-0.0821444
114	0xbe359403	-0.17732243
115	0xbd3de58b	-0.046361487
116	0x3b896688	0.004193131
117	0xbc5f3f42	-0.013625922
118	0x3c96b8e5	0.018398711
119	0x3b6f7d75	0.0036543284
120	0x3b686a7e	0.0035463865
121	0xbd3416ab	-0.04396693
122	0xbc681464	-0.014165018
123	0x3d85a4c7	0.065255694
124	0x3e057520	0.13032961
125	0xbcc60d2c	-0.024176203
126	0x3dea4780	0.11439419
127	0x3de3a581	0.11115552
128	0x3d8ebb83	0.06969359
129	0xbc0af6c0	-0.008481681
130	0xbe683d38	-0.22679603
131	0x3e1badcb	0.15203016
132	0x3d88e1de	0.06683706
133	0xbd85110e	-0.064973935
134	0x3dece274	0.1156663
135	0x3dcb8903	0.09938242
136	0xbdbaeb6d	-0.09126935
137	0x3d186a61	0.037210826
138	0x3dbbba5a	0.09166403
139	0xbda1b554	-0.07895914
140	0xbd989b99	-0.07451553
141	0x3e1e4927	0.15457593
142	0xbc31744d	-0.010830951
143	0xbdc4a002	-0.096008316
144	0xbdbb6754	-0.09150568
145	0xbdfd0e4d	-0.12356243
146	0x3ca8ad0d	0.02059033
147	0xbc78c619	-0.015183949
148	0x3ceab678	0.028651461
149	0xbdfe5c8d	-0.124199964
150	0xbd94d9c9	-0.07268102
151	0xbd35a6de	-0.04434859
152	0x3d30fed0	0.043211758
153	0xbe0b834f	-0.13624309
154	0xbce4d453	-0.027933275
155	0x3d47b1e7	0.048753645
156	0x3d38b9c3	0.04509903
157	0xbdb51ead	-0.088437416
158	0xbda00a81	-0.078145035
159	0x3d9a5353	0.07535424
160	0x3d31ee5a	0.0434402
161	0xbcf79150	-0.030220658
162	0xbdf3fe21	-0.119137056
163	0x3c3426e9	0.010995605
164	0xbafafe2c	-0.0019149235
165	0xbd08402f	-0.033264335
166	0xbe1fc2ee	-0.15601704
167	0xbd8fe661	-0.07026363
168	0xbd20a615	-0.03922089
169	0x3d973894	0.07383838
170	0xbc75913a	-0.014988238
171	0xbdb6ebe1	-0.08931709
172	0x3ba418e2	0.005007849
173	0xbdb52f7c	-0.088469476
174	0xbdd4c854	-0.10389772
175	0x3d96e472	0.07367791
176	0xbe18c398	-0.14918363
177	0xbcaf2696	-0.021380704
178	0x3e4c4299	0.1994728
179	0x3db347aa	0.08753903
180	0x3e22c388	0.15894902
181	0xbc0aa84a	-0.008462975
182	0x3c3d58fb	0.011556859
183	0x3e1cb8f2	0.15304926
184	0xbd63b2e3	-0.05559052
185	0x3bf266d9	0.0073975143
186	0xbd86a122	-0.065737024
187	0xbcba0588	-0.022707716
188	0x3c346ef3	0.0110127805
189	0x3ddd77d2	0.108138695
190	0x3d96c0a7	0.07360964
191	0x3d39da92	0.04537446
192	0x3cde49b5	0.027134756
193	0xbd286d45	-0.041119833
194	0x3d67de12	0.056608267
195	0xbd8eda8a	-0.06975277
196	0x3d3ab315	0.045580942
197	0x3dc86cf6	0.09786408
198	0xbdced6ab	-0.100995384
199	0x3c0790ba	0.008274252
200	0x3ddaa6cf	0.106763475
201	0x3e1bc35b	0.15211241
202	0xbd91a510	-0.07111561
203	0x3d0b09d4	0.03394492
204	0xbd496127	-0.049164917
205	0x3dc54028	0.096313775
206	0x3da263e1	0.07929207
207	0xbd97b6be	-0.07407902
208	0xbe76aab3	-0.24088554
209	0xbebf20ac	-0.37329614
210	0xbc65b074	-0.0140191205
211	0x3da37c53	0.07982697
212	0x3df35916	0.11882226
213	0x3decccc9	0.11562497
214	0xbd6387b3	-0.055549335
215	0xbdc6d326	-0.09708242
216	0xbca80f39	-0.020515071
217	0x3e0378e1	0.1283908
218	0xbdc0c5e8	-0.094127476
219	0xbda3c233	-0.07996025
220	0x3c1fb11a	0.009746814
221	0x3c3dbb3e	0.011580287
222	0x3d6fdd8a	0.058560885
223	0x3d91d8bd	0.07121418
224	0xbc2ddc2b	-0.010611574
225	0x3c9715d1	0.01844302
226	0x3d64e7b2	0.055885024
227	0x3c6cda37	0.014456323
228	0xbdd76df6	-0.1051902
229	0xbd84f7e3	-0.06492593
230	0xbcea0305	-0.028565893
231	0xbda02cc7	-0.078210406
232	0xbc8a7975	-0.016903618
233	0x3b347eb7	0.0027541348
234	0x3ca0ee81	0.019644978
235	0xbda2ee6e	-0.07955633
236	0xbc18b931	-0.009321497
237	0x3c6c9721	0.014440329
238	0xbd1494b3	-0.036274623
239	0xbbc2bed9	-0.005943161
240	0xbd76db95	-0.060268003
241	0x3d292416	0.04129418
242	0xbe689cfb	-0.22716133
243	0x3da58822	0.08082606
244	0x3c596120	0.013267785
245	0x3d8493ff	0.064735405
246	0xba0c1d58	-0.0005344949
247	0xbda13809	-0.07872016
248	0x3dffd836	0.12492411
249	0xbda93c39	-0.0826344
250	0x3dfc809f	0.1232922
251	0x3e40ae2e	0.18816444
252	0x3ddd24d1	0.10798038
253	0xbd580a82	-0.052744396
254	0xbd3e5b3c	-0.046473727
255	0x3d98c1fa	0.07458873

linear.bias f4 [4]
0	0xbd311541	-0.04323316
1	0x3cf00704	0.02930022
2	0xbe0a0b98	-0.13480985
3	0xbc4cdb13	-0.012503403
