parameters/best_model_101_1_0.00611980481344481.pth (torch, 235754 bytes, 6 tensors)

lstm_net.0.xh.weight f4 [404, 40]
000000 43 bc f5 bd 55 f7 0c bc e5 89 fc bd 58 36 8c 3a
       -0.11998799 -0.00860389 -0.12330989 0.0010697348
000010 ed 24 10 bb 5f 4a 09 bd 38 52 cf bd bf 09 c0 3c
       -0.0021994666 -0.03351819 -0.10123104 0.023442147
000020 20 73 15 bd af 15 86 bc 6e b2 bf bd 60 48 dd bd
       -0.036486745 -0.016367761 -0.09360205 -0.1080482
000030 68 ea fd bd 71 62 93 bd 4e 3d f7 bd 98 f3 1a b9
       -0.12398225 -0.071965106 -0.1207224 -0.0001477733
000040 67 d0 80 bc 8e a6 d2 bc 84 10 bc 3d 85 e3 f3 3d
       -0.015724374 -0.025714185 0.091828376 0.1190863
000050 10 ab 87 bd 45 8f 8e bd af 4a 96 bd 38 e2 48 bd
       -0.066244245 -0.0696092 -0.073384635 -0.049043864
000060 84 66 5c bd ac df 48 3d 62 9a 6f bd 9f e5 a7 3d
       -0.053808704 0.049041435 -0.05849684 0.081980936
000070 e8 49 41 3d e9 f5 71 bd c9 f6 88 bd bc eb c9 bd
       0.047189623 -0.05907241 -0.066876955 -0.09859416
000080 6c ec 09 3d d1 4d a7 3d 47 06 65 bd 53 55 0a 3c
       0.033672735 0.08169139 -0.05591419 0.008443194
000090 7c 12 77 bd c5 be f9 bc 3b b7 8c 3d 86 d6 a9 3d
       -0.060320362 -0.030486474 0.06870886 0.0829287
0000a0 67 9a e6 3c 88 ff a9 bc fa bb 12 3e 68 66 a5 3d
       0.028149797 -0.02075173 0.1432952 0.08076173
0000b0 e5 0c 87 3d 7c 15 1b bd 17 bf f7 3d c8 39 bf bd
       0.06594256 -0.037862286 0.12096994 -0.09337193
0000c0 f0 d1 bc 3d e9 ef 28 be 25 a8 b5 3d d1 67 da bd
       0.0921973 -0.16497768 0.08869962 -0.10664333
0000d0 54 12 ab 3d cb ca 64 3e 65 c5 2a 3e 41 d9 35 3e
       0.08353105 0.22342984 0.16676863 0.17758657
0000e0 a1 14 a5 3e c2 c4 40 3e fd 22 9e 3e fd c3 63 3e
       0.322423 0.18825057 0.3088607 0.22242732
0000f0 af 1a 0c 3d aa fa 09 3e e1 74 03 3e 54 47 69 3d
       0.034205135 0.13474527 0.12837555 0.05695279
000100 12 8b ee bb f9 7e e6 bc a2 8b a2 3c 2e f0 3e bd
       -0.007279762 -0.028136717 0.019841973 -0.046615772
000110 83 b2 66 3d f4 e1 99 3d e2 fc fa bc d7 3e cd 3c
       0.056322586 0.075138 -0.030638162 0.025054378
000120 1c 04 1b bd b7 c8 b1 3d ff e3 f3 3c fb b1 d1 bc
       -0.037845716 0.086808614 0.029771803 -0.025597563
000130 c2 98 9a bc 63 53 b5 3d 08 b3 98 3a df e2 b9 bd
       -0.018871669 0.088537954 0.0011650035 -0.09076475
000140 99 18 99 bb e1 bc 06 3e 0a 0f b0 3d b4 60 9c 3c
       -0.0046721217 0.13157989 0.085966185 0.01908908
000150 77 d2 ed 3d d8 f2 d2 3d 33 c3 27 3d 2c de ba bc
       0.116124086 0.10300225 0.04095764 -0.022811018
000160 0d de 06 3e 91 1e f1 3d 49 36 e3 bb bb 60 b1 3c
       0.13170643 0.11773408 -0.0069339615 0.02165257
000170 c9 2c ce 3c 4a f2 64 3d 2b a1 c2 3d 56 eb 02 3e
       0.02516784 0.055895127 0.095033966 0.12785086
000180 3f 44 ad bc 7e 1f f4 3d fe a6 d5 3d 8f 2a 51 3d
       -0.021150706 0.11920069 0.10432242 0.051065978
000190 fe dd 91 3d 97 29 ad bd 44 92 13 3d 55 08 f8 bc
       0.0712242 -0.08455198 0.03602816 -0.03027741
0001a0 eb 8e b3 3d a3 28 6f bd 3e 4a a8 bd 1d 04 b2 3d
       0.08767494 -0.058388364 -0.082172856 0.08692191
0001b0 e3 39 c8 3d 47 af 25 3d 5c 82 72 bb 74 9b 8a 3d
       0.09776666 0.04045036 -0.003700397 0.067679316
0001c0 6c 44 82 bd 52 be c6 bd fe 6a 89 bc dd 96 b0 3d
       -0.06360707 -0.097042695 -0.01677465 0.08622525
0001d0 e1 49 49 3d cd 29 a6 bd 63 fa e3 3c 18 ae 7f bd
       0.049142722 -0.081134416 0.027829355 -0.062421888
0001e0 cb e7 57 bc 40 42 ef bd 2e ef 4e bd b2 55 cb 3b
       -0.013177822 -0.11682558 -0.05052107 0.006205284
0001f0 42 f1 11 be a4 21 a2 bd fe df 5f bd a7 57 30 3b
       -0.14252189 -0.07916573 -0.054656975 0.0026907714
000200 4c b0 3e bc 02 8c de 3c d2 bf 8e bd 9b 85 03 bc
       -0.011638712 0.02716637 -0.069701806 -0.0080274595
000210 52 ef 5b bd dd ba 95 bc b3 be 1d 3d ef 98 a3 bc
       -0.05369503 -0.01827758 0.038511943 -0.019970385
000220 8d d2 b8 bd 3c 07 71 bd 73 51 db bd b4 a5 9b 3d
       -0.090245344 -0.05884479 -0.107088946 0.07599965
000230 b1 5a c5 bc 93 99 53 bc 55 da 3b bd 10 76 93 bd
       -0.024091097 -0.012915033 -0.045862515 -0.07200253
000240 f8 e8 4c bd 5b e2 b4 3d 50 b8 35 bd e2 1c ae 3d
       -0.050026864 0.088322364 -0.044365227 0.08501603
000250 48 bf b3 bd e5 b0 bf 3d ba 23 68 3d d2 de 59 bb
       -0.087767184 0.09359912 0.056674697 -0.0033244384
000260 69 56 61 3d 97 1b 38 bd 32 7b bb bc 2d 3f 1d 3d
       0.055014048 -0.044948187 -0.022885893 0.038390327
000270 b6 7b be bc 3e a1 72 bd 32 f3 f3 bc d4 51 12 bd
       -0.02325235 -0.059235804 -0.02977905 -0.03572257
000280 be 64 e6 3d ee cb a7 3d ba 73 41 3e 3a b7 77 3d
       0.11249684 0.081931934 0.18891802 0.060477473
000290 e5 8b b9 3d d0 e3 5a 3e 0c 20 e2 3d 99 3d 1a 3e
       0.09059886 0.21375966 0.11041269 0.1506256
0002a0 b4 37 e8 3d 81 47 75 3d 2b 8f 3c 3e 2a 33 f2 3d
       0.113387495 0.059882645 0.18413989 0.11826165
0002b0 3d 73 1a 3e 03 0c 7a 3c 36 f8 c3 3d e0 9d 1a 3e
       0.15083022 0.015261653 0.09568827 0.15099287
0002c0 9e c6 85 bb 17 a9 46 bd 7d 9b db 3c 73 8b 85 3d
       -0.004082515 -0.0485011 0.026807541 0.065207385
0002d0 48 97 1a 3d 4f 3b 83 bd b1 5c b3 bd db ef 32 bc
       0.03774193 -0.064077966 -0.08757914 -0.010921444
0002e0 0c 9c 74 3d 83 49 ba bd cf 7a b9 bd 7e 92 cf 3c
       0.05971913 -0.090960525 -0.09056627 0.025338408
0002f0 cd eb 7d 3d d1 bc c2 bd fa 29 91 bc 66 6d 9d bd
       0.061992455 -0.0950867 -0.017720211 -0.07686882
000300 b5 29 70 3d ec dc b1 bd b8 5d a6 3d 92 5a f9 bc
       0.058633525 -0.08684716 0.08123344 -0.030438695
000310 66 01 cb bb 2f 65 2c bc cf b1 ca 3d f6 0b b8 3d
       -0.006195235 -0.010522171 0.098971955 0.08986656
000320 91 10 f4 bd 71 b7 c2 bd 46 7b b9 bd 9d fc e8 bd
       -0.11917222 -0.09507645 -0.09056716 -0.11376307
000330 d1 da fb bd 68 dc 06 be eb ea 02 bd cc c1 d8 bd
       -0.12297595 -0.13170016 -0.031962316 -0.10583839
000340 7e 93 4e bd ef 58 54 3d 89 e6 40 bd b0 81 5d bd
       -0.05043363 0.051842626 -0.047094855 -0.054078758
000350 47 08 e7 bd 55 ce e8 bd e4 51 f4 bd 3e bb 4e 3d
       -0.11280876 -0.1136748 -0.11929682 0.050471537
000360 29 af b5 bd cc 85 6a 3d 67 39 5e bd 6f b0 f0 bb
       -0.088713 0.057256505 -0.054253962 -0.0073452513
000370 fd 84 26 3d 0f 75 d7 bb 26 73 cf bc b5 8b 24 3d
       0.04065417 -0.006575234 -0.025323462 0.040172298
000380 02 f2 82 3a 69 ee 98 3d 52 fe b9 3d a7 03 96 bd
       0.0009990337 0.07467348 0.09081711 -0.073249154
000390 07 30 61 bd 1e c2 48 bd 8f bf 1d 3d a4 74 a3 3d
       -0.054977443 -0.04901325 0.038512763 0.07981232
0003a0 a2 a8 1f bd 11 ef c5 bd 04 13 6a 3d 13 51 23 3c
       -0.03897918 -0.09664739 0.05714704 0.00996806
0003b0 99 58 2b 3d 34 05 bf bd c0 4c 5f bd 24 38 36 3b
       0.04183254 -0.09327164 -0.054516554 0.0027804459
0003c0 d0 ae 0e bc 51 78 15 bd 75 c1 50 bd e0 33 00 bd
       -0.008708671 -0.036491696 -0.050965745 -0.03129947
0003d0 0e ee 4a 3d 9a f5 c9 bd c1 65 69 bd 4f 73 f2 3c
       0.049543433 -0.09861298 -0.056981806 0.029595999
0003e0 3a 14 96 3c 87 83 9b bc b7 66 8e bd 40 72 16 3d
       0.018320192 -0.018983616 -0.06953185 0.03673005
0003f0 ef f4 92 3d e6 33 c7 bd 2c bc 91 3c df cb 3c bd
       0.071756236 -0.09726696 0.017789923 -0.046092864

lstm_net.0.xh.bias f4 [404]
000000 12 a2 81 bb fc a1 8c 3d 3e 6d ab 3d 53 1c 97 bc
       -0.003956088 0.068668336 0.08370446 -0.018446123
000010 f6 40 f7 3d d2 7b 65 bd cc 87 c9 3d cd e8 b0 3d
       0.12072937 -0.056026287 0.09840354 0.08638153
000020 04 bb ab 3d 14 f7 27 bd a5 ef af bd 0e d5 e6 3d
       0.0838528 -0.041007116 -0.085906304 0.11271106
000030 5a 27 cc 3d 04 80 d4 bc ae 78 9e bd 8e 7a 85 3c
       0.09968443 -0.025939949 -0.077378616 0.01629379
000040 d6 71 29 bd 87 62 8e 3d 65 54 9f bd f4 73 a1 3b
       -0.041368328 0.06952386 -0.07779769 0.004927153
000050 4e b4 97 bc 09 31 a3 3d 2a 13 83 3c 00 0a 19 bc
       -0.018518593 0.07968337 0.01600035 -0.009340763
000060 69 84 bc 3d f6 57 4a bc 3a f0 8c bd 39 55 04 be
       0.09204943 -0.012350073 -0.06881757 -0.12923135
000070 7b 0f f3 bd 13 49 1a be 57 73 07 3e 8f 80 54 3c
       -0.11868187 -0.15066938 0.13227592 0.012970104
000080 05 c9 40 3d dd aa 7f 3a e4 ec b8 bd 0e cc 38 bd
       0.047066707 0.00097529386 -0.09029558 -0.045116477
000090 8a 85 aa 3d b5 c2 a7 3d b9 3f 8b bc 65 55 9c bc
       0.08326252 0.08191434 -0.016998159 -0.019083688
0000a0 85 8e 83 bd f0 3e 6f 3d e0 51 c9 3d 9e aa 03 be
       -0.06423668 0.05840963 0.098300695 -0.12858054
0000b0 1b b5 79 bd 5f 75 06 bd 74 b9 f4 bc 15 b6 8f 3d
       -0.06096373 -0.032826778 -0.029873587 0.07017151
0000c0 00 37 ee bb 83 e4 7a bd e2 86 5b bc 6c 2f 2b bd
       -0.00726974 -0.061253082 -0.013398858 -0.041793272
0000d0 5a 9c 65 bd f8 b1 e2 3b 3f a4 48 3e f6 41 f7 bd
       -0.05605731 0.006918188 0.19593905 -0.12073128
0000e0 c7 38 c1 bc 27 fa a7 3d 0d 7e 2a bc 8d 87 70 3d
       -0.023586644 0.0820201 -0.010406029 0.05872302
0000f0 4c 43 aa 3d 18 a7 d6 3d e8 0a 18 3d fc a2 4b 3d
       0.08313617 0.10481089 0.037119776 0.04971598
000100 34 25 82 bd c0 10 ec 3d 75 44 c5 bd 44 d1 70 bd
       -0.06354752 0.11526632 -0.09632198 -0.05879332
000110 a0 31 6c bd 61 cd 78 bd 81 4e 90 3b 59 93 38 3d
       -0.057664514 -0.06074274 0.0044038896 0.045062397
000120 d8 c5 5d 3d 69 ab 1d 3d c7 f4 8d 3d c6 29 ca bd
       0.054143757 0.038493548 0.06931453 -0.09871249
000130 ad 58 85 3d b6 9b 9e 3c b4 29 32 3d b1 76 93 bd
       0.06511054 0.019361358 0.043496802 -0.07200373
000140 9d 0d 8a 3c b2 a2 b1 bd 8d 92 e4 3d a4 32 bd 3d
       0.016852194 -0.0867361 0.11160765 0.092381746
000150 2d a7 59 3d 28 9d 00 be 0e f7 1c 3b 95 6c 42 bd
       0.053137947 -0.1255995 0.0023950967 -0.047466833
000160 ab 51 08 be 37 d7 0f bd 85 23 68 bd 1c ef 06 3d
       -0.13312404 -0.035117354 -0.0566745 0.032942876
000170 f1 77 c4 bc 54 59 20 be a8 6d 1a be 42 9d cb bb
       -0.023982974 -0.15659076 -0.15080893 -0.006213815
000180 78 4d a6 3d 00 76 cd 3c 3e 1d b5 3c 90 a7 d1 3d
       0.08120245 0.02508068 0.02210867 0.10237038
000190 ab 66 a3 bd ab 9f 57 be 7a 8d b7 bc e7 22 c6 3d
       -0.07978567 -0.21057002 -0.022406328 0.09674626
0001a0 61 30 cb bd c0 a5 19 3e b0 d5 fe bd 67 15 85 bd
       -0.09921337 0.15004635 -0.124431014 -0.06498223
0001b0 a9 7b ed 3a c9 cd 5b bd 86 ba 73 bd 3f ab cb bd
       0.0018118519 -0.05366305 -0.059504054 -0.09944772
0001c0 1f 3e 55 bd 07 c2 76 bd fc 55 13 3d 3f ce 04 3d
       -0.052061196 -0.060243633 0.035970673 0.032423254
0001d0 0d 4c 04 3c 7b bc 85 bd a7 74 0a 3e 1f b7 7e 3c
       0.008074773 -0.065300904 0.13521062 0.015546589
0001e0 9f a3 93 bd b7 d2 cf 3d 52 12 9f bc 80 dd da 3d
       -0.072089426 0.101476125 -0.019417915 0.10686779
0001f0 89 45 23 3e 54 43 75 3a 03 56 87 3d 53 1e 90 3d
       0.15944494 0.0009356041 0.06608202 0.07037034
000200 0a bd 77 bc ae 6b 50 be 02 b9 96 3d 56 6e 7e bd
       -0.015120754 -0.20353577 0.07359506 -0.062116943
000210 51 95 ac 3d 55 cd 87 bc a8 0b 69 bd 96 1b fa bc
       0.08426917 -0.016577402 -0.056895882 -0.030530732
000220 d5 87 30 be 1c 13 45 3d ba c3 ad bd c2 fa c6 3d
       -0.17239316 0.048113927 -0.084845975 0.09715797
000230 d7 8a 98 3c 46 ec 6f bd f8 5f 9e 3d 93 5e 1b be
       0.018620891 -0.058574937 0.07733148 -0.15172796
000240 1f 83 d0 bd c4 5d fe 3d b6 e1 d8 bb 08 4c 01 be
       -0.10181259 0.12420228 -0.0066187037 -0.1262666
000250 d7 36 95 3d f2 0d 85 bd ef 8d 34 3a f5 b7 20 3e
       0.072858505 -0.064968005 0.0006887605 0.15695174
000260 d6 e0 d7 bc 3b 6b a7 3d 79 07 87 bd 67 81 42 3c
       -0.026352327 0.081747495 -0.06593222 0.011871672
000270 31 f8 70 bc 59 16 81 bd 3b d3 a8 bc 9f 19 c5 3d
       -0.014707611 -0.063030906 -0.020608535 0.096240275
000280 5e cc be bd e4 3c 97 bc 73 d7 7d bd 76 21 da bd
       -0.09316324 -0.018461652 -0.061973047 -0.106509134
000290 6a 6a 97 3d 68 28 bc bb ba 62 f5 3b 2d 9a 0c bc
       0.07393344 -0.0057421215 0.0074885758 -0.00858168
0002a0 a9 07 83 bd dd 8e 50 3d 12 e5 7c 3d ba 66 92 bd
       -0.063979454 0.050917495 0.061741896 -0.071485
0002b0 73 ae e7 3d 4a aa a2 bd 85 5c ad 3d 68 48 0a 3d
       0.113125704 -0.07942636 0.08464912 0.03376046
0002c0 e5 75 df bb 32 e4 2f 3d 1f 57 73 3b 3a 86 57 bd
       -0.006819474 0.042942233 0.0037130786 -0.052618243
0002d0 e4 23 36 bb 84 94 6f bc 1d d3 4a bd e3 e3 32 3d
       -0.0027792389 -0.014622811 -0.04951774 0.04367436
0002e0 d2 b8 7d 3d ed 28 e2 3d a7 d0 10 3e 20 60 9e 3d
       0.061943837 0.11042962 0.14142095 0.07733178
0002f0 06 dc 33 bd 2e aa e4 3d 5f b0 d4 3d c3 6d f9 bd
       -0.043911003 0.11165272 0.103852026 -0.121791385
000300 6c 6e b9 bb 6f 21 10 be 26 7b d7 bd 95 d2 4a 3e
       -0.0056589153 -0.14075254 -0.105215356 0.19806893
000310 98 79 80 3d ae a7 2c bc 69 30 ef 3d dc 87 36 3d
       0.06273192 -0.010538025 0.116791554 0.04456316
000320 ca 42 88 3d ed 0c 47 3d 89 1a 21 bb 82 5a 02 be
       0.06653364 0.04859631 -0.0024582467 -0.12729838
000330 6d ed 52 bc 47 2e 9c bd 0e 3e 91 3b 43 3d 92 3d
       -0.0128739895 -0.07626014 0.0044324463 0.07140591
000340 aa 9f bc bc c8 5b de 3d 8e 1c aa bd a9 08 b1 3d
       -0.023025353 0.1085735 -0.083062276 0.0864423
000350 97 46 3e 3d f9 ce b0 bd 18 1c d9 3d 93 c8 09 3e
       0.04645404 -0.08633227 0.106010616 0.13455419
000360 a0 ad fd 3c 28 7f 32 3d 2c 69 07 bd d9 d5 4e bd
       0.03096658 0.043578297 -0.033059284 -0.05049691
000370 30 d3 e8 3b 4d c9 60 bd 14 f8 38 3d 4d 6d 84 bc
       0.0071052536 -0.054879475 0.04515846 -0.0161654
000380 d6 79 99 3d 28 66 a5 3a 4f 4f 08 bd fb ca ad bd
       0.074939415 0.0012618946 -0.03327876 -0.08485981
000390 c6 14 32 3d 96 3c b3 3d a9 24 eb 3d 96 e3 13 bd
       0.043476842 0.0875179 0.11481602 -0.036105715
0003a0 a5 a2 2a bd fe fa 0d be 65 69 4b 3d f9 2e 7b 3d
       -0.041659016 -0.13865277 0.04966106 0.061324093
0003b0 c4 05 f6 3c 5d 68 3a bc 15 39 1a bd 7b 66 bb bd
       0.030032046 -0.011377421 -0.037652094 -0.09150406
0003c0 a6 93 74 bd 4b 8e 89 3d 2c 12 2c bd 47 4b cf 3c
       -0.05971112 0.06716593 -0.042009518 0.02530445
0003d0 e2 81 61 bd ea ba 9e 3c a3 78 02 bc 45 12 eb 3d
       -0.055055507 0.019376237 -0.007963332 0.11478094
0003e0 45 41 1a bd 98 bf b0 3d a1 61 0b 3e 4a 72 87 bd
       -0.037659902 0.086302936 0.13611461 -0.06613596
0003f0 e9 fe 1c 3d d9 83 00 3d b0 fe b4 3c 4f 72 a2 3d
       0.03832904 0.03137574 0.0220941 0.07931959

lstm_net.0.hh.weight f4 [404, 101]
000000 42 33 25 3d 83 bc 3f bd 4a 28 c2 bd 79 2e f5 3c
       0.040332086 -0.04681064 -0.09480341 0.029929386
000010 98 07 00 bd f0 cf ce b9 a3 5a 1d 3c d0 d8 ca 3d
       -0.031257242 -0.00039446307 0.009604129 0.09904635
000020 27 0d 23 3d d8 ef 02 bd e5 78 4f 3d 6e cd e7 3c
       0.039807465 -0.031967014 0.050652403 0.028296199
000030 f5 00 91 bd 39 bd a0 3d ac 57 65 3d 65 c1 b2 3d
       -0.07080261 0.07848591 0.055991814 0.08728293
000040 d7 17 20 3d 97 5c 92 3d 31 14 81 3d 64 93 ca 3d
       0.039085235 0.07146566 0.06302679 0.09891394
000050 e5 61 19 bd 1e 4d c3 bd 78 3b e2 3c 69 3c 48 3d
       -0.037446875 -0.09536193 0.027616248 0.048885737
000060 dd 55 a9 bd ce 19 c9 bd e7 81 b2 bd f7 6f 12 3d
       -0.0826833 -0.09819375 -0.08716183 0.03575131
000070 5b fa be bd ad 37 c1 bd 1d 1b 0a 3c 2c 75 cb bc
       -0.09325095 -0.094344474 0.008429316 -0.024836145
000080 f5 c8 05 3d a3 64 ab 3c 7f 0e 75 3d d5 f8 8a bd
       0.03266235 0.02092201 0.059828278 -0.06785742
000090 39 d7 b6 bc 6b 22 b9 3c a7 ec 73 3d d2 f3 71 bd
       -0.022319423 0.02259942 0.05955186 -0.059070416
0000a0 d7 a0 6f bd dc 62 77 3d c2 dc 82 bd b7 01 72 bd
       -0.058503 0.060397014 -0.063897625 -0.059083667
0000b0 b7 de c3 bd 2e b2 75 bd ee 65 a9 3d 4c ac 0e 3d
       -0.09563964 -0.05998438 0.08271395 0.034832284
0000c0 71 51 b7 bd 0b 40 56 bc 0d 7b 16 bd 84 61 69 3d
       -0.089510806 -0.0130767925 -0.036738444 0.056977764
0000d0 e3 db b6 bd ec 35 16 3d 2c 39 bd bc 43 8f 71 3d
       -0.08928659 0.036672518 -0.02309855 0.058974516
0000e0 a5 a9 88 3d 43 15 15 bd 65 45 9c 3c 00 2c 59 3d
       0.06672982 -0.03639723 0.019076059 0.053020477
0000f0 c7 c2 3a 3d dc 05 81 3c cf 02 50 3b cd f1 a2 3d
       0.04559591 0.015749864 0.0031739955 0.07956276
000100 be d6 c8 3c 78 2e 8a 3c 1a 7d 4d bd d7 c7 d5 3a
       0.02451646 0.016867861 -0.050168134 0.0016310167
000110 1a 5d fd bc b6 eb 84 3d 77 09 3a 3b b3 d0 90 ba
       -0.030928183 0.06490271 0.002838699 -0.0011048525
000120 d2 b0 c6 bd ff 13 42 bc 1f c3 06 bd 2c 27 7c bd
       -0.097016945 -0.011845588 -0.032900926 -0.061560795
000130 63 38 b4 bd aa 34 a8 3d 84 36 83 bd bf 76 7e bd
       -0.087998174 0.0821317 -0.064068824 -0.062124964
000140 7a cf 48 3d 8a 0b a0 bd bc a3 db 3c ff c1 82 bd
       0.04902599 -0.07814701 0.026811473 -0.06384658
000150 e0 1f 73 bd 65 d3 dd bc 7c e6 a6 bd d2 47 30 bd
       -0.05935657 -0.02707834 -0.0814943 -0.043037243
000160 59 49 c4 bd 00 ae 8b bd 3a e9 9d bc 32 1b 37 bd
       -0.095843025 -0.06820297 -0.01927625 -0.04470367
000170 9a b8 9d 3d 7e 05 b3 bd 97 42 a0 bd 01 8b bf bd
       0.077012256 -0.08741282 -0.07825201 -0.09352685
000180 ef 47 b7 3c a3 aa a9 3d d1 6c 84 3d e7 63 78 3c
       0.022373168 0.082844995 0.064660676 0.015160537
000190 bc 9f a9 3d de e7 0b 3d 2a 3c 9a bd f9 13 c6 3d
       0.0828242 0.034156673 -0.07531007 0.09671778
0001a0 db 5d 9f bd 56 11 dd 3c 75 aa 73 3d 88 4a ca 3d
       -0.077815734 0.026985805 0.059488732 0.09877497
0001b0 b1 d3 0c bc 59 3d 37 bd f1 77 6f 3c 95 7e ae bd
       -0.008595393 -0.04473624 0.014615999 -0.08520237
0001c0 17 85 07 3d 60 47 5f bd fd 93 70 bd 78 a4 ac 3d
       0.03308591 -0.054511428 -0.058734883 0.084298074
0001d0 b7 bb 76 bd 49 53 c0 3c e3 0e 1e 3c d2 54 8d bd
       -0.060237613 0.023477213 0.009647104 -0.06900944
0001e0 77 87 b9 bd 4c 92 a0 3d aa ff aa 3b 30 b0 ae 3d
       -0.09059041 0.07840404 0.005218466 0.08529699
0001f0 67 41 75 3c e1 e2 11 bc e7 fc 8d bd 09 31 83 3d
       0.014969206 -0.00890419 -0.06933003 0.06405837
000200 11 97 2f 3d 13 1a be 3a b1 d6 63 3c 3c 52 2f bd
       0.042868678 0.001450362 0.013906167 -0.042803034
000210 0f 98 38 bc 8b 67 56 bd 3f d9 8a bd 55 3d c8 3b
       -0.011266722 -0.05234484 -0.06779718 0.006110827
000220 12 b8 fd 3c 47 6c 1c 3b c9 71 88 38 c6 63 19 bd
       0.03097156 0.002386825 6.5061795e-05 -0.037448667
000230 19 59 c2 3d 5c e0 b8 bd 83 ae 0c bd b0 12 87 bc
       0.0948965 -0.09027168 -0.034346115 -0.016488403
000240 b4 c8 92 3d d1 a6 19 bb eb ed aa bd 16 75 a1 3d
       0.07167187 -0.0023445378 -0.083461605 0.078836605
000250 24 5f c2 3d 6b 76 0b 3d 49 60 f0 39 c3 a8 2a 3d
       0.09490803 0.03404848 0.00045848105 0.04166485
000260 7e 4a bd bd 84 38 a7 bc 6b 2f ad bd 15 71 3b bd
       -0.09242724 -0.020412691 -0.0845631 -0.04576214
000270 b1 52 b7 bd c2 64 d7 3c e6 71 b1 bd 50 78 c7 bb
       -0.08951319 0.026293162 -0.086643025 -0.0060873404
000280 92 be 3c 3d f3 c2 ab 3d 42 ba c4 bd 0f a6 90 3c
       0.04608018 0.08386793 -0.09605838 0.017657308
000290 11 74 81 bd 69 cc a2 bc a2 dc 66 3c 2f f0 43 3d
       -0.06320966 -0.019872861 0.014090689 0.04783648
0002a0 d4 e0 4f bd 78 05 35 bc eb 3f 90 3d 47 b5 c0 bd
       -0.050751522 -0.011048667 0.070434414 -0.09409576
0002b0 f7 66 7c 3d 3b 6a 2d bc 79 4b 6b 3c 15 57 6f 3d
       0.061621632 -0.010584409 0.014361256 0.058432657
0002c0 73 b1 65 bd ae 8e d3 3b 34 a2 7f 3b ae 3a 41 3c
       -0.056077432 0.0064562177 0.0039006593 0.0117937755
0002d0 37 a3 bc 3d 6c 02 f3 3b 9f 24 a4 3b e7 b8 9c bd
       0.09210818 0.00741606 0.0050092484 -0.07652455
0002e0 e3 8a cc bc 94 a8 a9 ba ee 98 31 3d 8e 87 29 bd
       -0.02496857 -0.0012943917 0.043358736 -0.04138904
0002f0 3d 3a 07 bc 08 65 03 bb b8 69 19 ba a1 f4 12 bd
       -0.008253631 -0.0020049233 -0.000585224 -0.035877828
000300 59 fe 07 3d 34 43 89 bd 4a ca b4 3c 47 48 b3 bd
       0.03320155 -0.06702271 0.022069115 -0.0875402
000310 8b 3f 2d 3c 24 42 9a bd d7 37 1c 3c 41 f3 aa 3c
       0.010574232 -0.075321466 0.009534798 0.020867946
000320 dd 5e 8e bd 69 ef 98 3d 25 f3 a5 bd a0 14 46 3d
       -0.069516875 0.07467539 -0.08103017 0.048359513
000330 4c c5 8d bd e0 2c c2 3b 21 3d c9 3d 4b 07 2a 3d
       -0.06922397 0.0059257597 0.098261125 0.04151086
000340 4c f0 28 3b f1 d4 3e 3b d3 d9 5e bd 16 2f 8c bc
       0.0025777994 0.0029118622 -0.054406952 -0.017112296
000350 f8 c7 5a 3d 5b a9 0a 3a 09 68 4c 3d 21 31 5d 3d
       0.05341336 0.0005289518 0.049903903 0.05400193
000360 72 32 b8 3d 97 d1 d6 3c 3a 39 3b bd 9d a1 43 3b
       0.08993997 0.026222987 -0.045708872 0.0029850968
000370 76 9e 7e 3d 14 ec 95 bd 13 12 fd ba 34 fd bf 3d
       0.06216284 -0.07320419 -0.0019307755 0.093744665
000380 a7 2d b7 bd 26 f2 a6 3d 1e d3 27 bd cc 81 9a bd
       -0.08944254 0.08151655 -0.04097282 -0.07544288
000390 a7 06 84 3c 18 54 af 3d c7 e0 a5 bc 9f e4 b4 3d
       0.016116453 0.085609615 -0.020248784 0.088326685
0003a0 b8 58 11 3d 5c c2 7d 3d 02 5b c7 3d 31 22 09 3d
       0.035485 0.061952934 0.09734155 0.033479873
0003b0 99 62 9e bc 6f d4 75 3d 6a 36 95 3d d9 cb 7d 3d
       -0.019334124 0.060017046 0.07285769 0.061961982
0003c0 71 87 a9 bd a3 fd 46 3d 54 96 88 3d d8 83 24 3d
       -0.082777865 0.04858173 0.06669298 0.0401648
0003d0 9d 8b 56 bd 04 e9 09 bc df 5f 87 bd b5 1f a0 3d
       -0.05237924 -0.008417372 -0.06610083 0.07818548
0003e0 18 5b 63 3d 0d a1 b0 bd 20 b1 b8 bd 50 0d 16 bd
       0.055506796 -0.08624468 -0.09018159 -0.03663379
0003f0 99 18 a8 bc 31 ba 8d bc a8 f5 b2 3d e4 a3 28 bd
       -0.020519542 -0.017300697 0.087382615 -0.041171923

lstm_net.0.hh.bias f4 [404]
000000 cd 59 53 3d bd 37 ae 3c 54 de b4 3d fe 68 21 bc
       0.051599313 0.021266812 0.08831468 -0.009851692
000010 ed 2b 40 3e ee 6e da bd 04 e4 d2 3d 91 da 84 3d
       0.18766756 -0.106656894 0.10297397 0.06487001
000020 32 f8 ea bc a6 c1 61 bc 46 6c d5 bc 52 30 3b 3d
       -0.028682802 -0.01377908 -0.026052605 0.04570038
000030 24 c6 32 bc 62 e8 25 bd e0 06 1c bc e8 0c 3a bd
       -0.010911498 -0.04050482 -0.0095231235 -0.045422465
000040 88 b1 f2 3c 85 f2 e0 bd 4b 32 c1 3b 0f a5 ae bc
       0.02962567 -0.10983757 0.005895888 -0.02131894
000050 bb 27 21 3d 27 cf e7 3d 95 48 1f be 55 38 79 3d
       0.03934453 0.11318808 -0.15555032 0.060844738
000060 94 45 39 3d dd ff 12 bd 83 f9 9d bb 39 38 85 bd
       0.04523237 -0.03588854 -0.004821004 -0.06504864
000070 72 40 e4 bc a5 4d 2a be 49 2c 85 3d 5b 86 7e bd
       -0.027862761 -0.16631182 0.06502587 -0.06213985
000080 fb 91 7d bc 63 85 8b 3d 31 5b 50 bd 2d 9d 97 bd
       -0.015476699 0.06812551 -0.050868217 -0.07403026
000090 9c 29 99 bc cb de a2 3d fc 61 3a bd 5e 21 25 3d
       -0.018696599 0.07952651 -0.0455036 0.040315025
0000a0 e1 af 90 3d 9d 9f fe 3d 40 a2 23 3d 4d ae 0b be
       0.07064796 0.124327876 0.039949656 -0.13640709
0000b0 a7 9a ad bd d5 c6 c8 3b 67 bc d8 bd 8a 11 49 3d
       -0.08476763 0.0061272183 -0.1058281 0.049088992
0000c0 44 ad 0b 3e b3 2e ed 3c 84 ea 08 bc 22 2c 28 bd
       0.13640314 0.028952932 -0.008356694 -0.041057713
0000d0 99 83 03 3d 92 02 0e 3c 11 08 7b 3e 06 7c 83 bd
       0.032107923 0.008667605 0.24514796 -0.0642014
0000e0 82 95 f4 bd c1 f2 27 3d 5f 1a a9 3d 11 44 03 3d
       -0.11942579 0.041002993 0.08256983 0.032047335
0000f0 38 ee 9c 3d c3 80 be bc 62 c6 a2 bc b7 b5 1b 3d
       0.07662624 -0.023254758 -0.019869987 0.038015094
000100 7a 8c c4 bc 48 cc 19 3d fb ea bf bc 58 3c cc bd
       -0.023992766 0.037548333 -0.023427477 -0.09972447
000110 76 6e 15 3d 3a f3 96 3c 55 7b 7f 3d 19 2a 17 3d
       0.036482297 0.018426526 0.062373478 0.03690538
000120 7b 0c a8 bd b0 3d aa 3d 9f db 23 bd cd 4c 85 3b
       -0.082055055 0.08312547 -0.04000437 0.0040679933
000130 ce 1e fe bd 67 8f ed 3d be a3 87 3d 95 3f 74 bd
       -0.12408219 0.115996175 0.06623028 -0.05963095
000140 33 cc c1 3c cd 09 fb bd 05 19 52 3c e0 1d 00 3e
       0.02365694 -0.12257729 0.012823348 0.12511396
000150 5b 9a 07 3e 33 11 95 bd e3 a6 95 bd 2d 33 75 3d
       0.13242476 -0.07278671 -0.07307222 0.05986326
000160 47 0c df bd 8e 7b b8 3d 5f 6d 9b 3d 66 99 26 3e
       -0.108910136 0.09007941 0.0758922 0.16269454
000170 cc 6e ad bd 89 9a 93 bd 20 e2 26 be 91 35 e0 3d
       -0.084683985 -0.072072096 -0.16297197 0.10947717
000180 57 43 b2 3c bc 5b da 3d 5d 8e 80 3d 7d 2d f3 3c
       0.021760626 0.10662028 0.06277154 0.029684776
000190 82 32 41 bd f7 27 36 be e2 50 6c bd 3e 18 59 3e
       -0.04716731 -0.17788683 -0.057694323 0.21200654
0001a0 eb c9 42 bc 6a 6e 06 3e 3a 47 1c be a5 95 9f 3d
       -0.011888961 0.13128057 -0.15261546 0.07792214
0001b0 bb af 0b be ff 6e 14 be 01 ef 17 3c 62 34 20 bd
       -0.13641255 -0.14495467 0.009273292 -0.039112456
0001c0 46 8b fb bd de 02 39 be 36 30 71 bb b9 f3 fe 3c
       -0.12282424 -0.180675 -0.0036802418 0.031122075
0001d0 93 02 ac 3b c5 2e a3 3d 10 a3 0a 3e 6e bc 5b 3d
       0.0052493303 0.07967905 0.13538766 0.053646497
0001e0 3b 90 c7 bd 6e db e2 3d 3b 28 d7 3d 26 a4 ac 3c
       -0.09744307 0.11077009 0.1050572 0.021074366
0001f0 16 bd 4a 3e 82 43 55 3d 20 ee b0 3d f6 d6 e9 bc
       0.19798693 0.052066334 0.08639169 -0.028544884
000200 97 e1 af 3d 2f 34 02 bd 0b d0 1b 3e 02 57 2b be
       0.0858795 -0.031788047 0.15216081 -0.1673241
000210 7e c3 b9 3d f7 90 55 bd 0f 19 e8 bd 2a 39 0c 3e
       0.0907049 -0.052140202 -0.113329045 0.13693681
000220 73 31 12 be 29 19 69 3d 7e 52 9b bc 72 1b 07 bd
       -0.14276676 0.05690876 -0.018960234 -0.03298516
000230 99 39 65 3c d5 a6 97 3b 4a f8 23 3d 81 c4 ea bd
       0.013990783 0.004628042 0.04003171 -0.114632614
000240 e2 7a 74 3d e4 dc 93 3d e2 74 a2 3d d7 a8 c0 bd
       0.059687503 0.07219866 0.0793245 -0.09407204
000250 75 43 06 bd a3 49 8c 3d 72 ae a7 bd 7f f3 fe 3d
       -0.032779176 0.068499826 -0.0818757 0.12448787
000260 2b 0c f9 bd 66 1a 44 3d 46 1b 38 ba 63 6e 8c bc
       -0.12160524 0.047876738 -0.0007023107 -0.01714248
000270 87 b1 07 bd c7 0d 47 bd 94 29 38 bd 8f ae b3 3d
       -0.033128288 -0.048597123 -0.044961527 0.08773529
000280 e7 00 6b bd 4f c5 ab 3c be 37 4f 3d 27 ea c9 bb
       -0.057373907 0.020968108 0.05059027 -0.0061619463
000290 7a 7e bd 3d 27 e5 5c 3c 0d 0e ce bd 5b 89 35 3d
       0.09252639 0.013482369 -0.10061274 0.044320446
0002a0 5e d3 aa bd 28 25 98 3c 76 60 84 3d 12 3b 47 bc
       -0.08341096 0.018572405 0.06463711 -0.01216008
0002b0 e0 60 f7 3d 03 85 a1 bc 58 dc d1 3d 70 ba 0b 3e
       0.12079024 -0.019716745 0.10247105 0.13645339
0002c0 f5 cc 84 bb f1 fe de 3c 17 0c 02 3e b2 8d 81 bd
       -0.004052753 0.027221175 0.12699924 -0.06325854
0002d0 22 99 41 3c b0 02 08 be 9a 21 00 be da f0 6a bd
       0.011816295 -0.13282275 -0.12512818 -0.0573586
0002e0 4b 76 c1 3d cf 2c 13 bd b7 6e 8a 3c e4 ba 28 3e
       0.09446391 -0.035931405 0.016898496 0.16477543
0002f0 d8 ee e0 3d 30 f5 1f bd 8f 95 99 3d 08 de 0f be
       0.10983056 -0.03905219 0.07499229 -0.14049542
000300 b3 24 bc bd fe 24 0e be 2d 7f bd bb bd 3f 19 3e
       -0.09186687 -0.13881299 -0.005782983 0.1496572
000310 92 1a ae 3d 1e f1 e6 3b 23 3c 1e 3e ce 2a 95 3d
       0.08501162 0.0070477864 0.15452628 0.07283555
000320 50 6d c9 bd f1 c4 1b bd e2 9c 12 bd e0 e1 83 3d
       -0.09835303 -0.038029615 -0.035794146 0.064395666
000330 46 94 aa 3d c4 35 df 3d 72 1c a2 bc 58 38 1b 3e
       0.08329062 0.10898927 -0.019788954 0.15158212
000340 6f b6 1a bd ae 59 b2 3d 5a 1e c5 bd 4f de 29 bd
       -0.03777164 0.08708511 -0.0962493 -0.041471776
000350 fd 3f c9 3d 41 4d ff 3b aa 50 86 bc bc 69 33 3e
       0.09826658 0.007791192 -0.016395885 0.17520803
000360 87 2a 5c 3d 43 ac 74 bd 4d 74 06 3e 21 d9 fc 3d
       0.053751495 -0.059734594 0.13130303 0.123461016
000370 49 ce 32 3d 2c 4b c2 3d bf 0f f7 3c 5e d8 1f bd
       0.04365376 0.09486994 0.030158876 -0.039024703
000380 3c f8 55 3d 0e 8c 7d bd 26 df 6b bd 45 25 59 bd
       0.052238688 -0.061901145 -0.057585858 -0.05301406
000390 e8 d9 22 3d 1d 58 d7 3d da 1a 01 bd 34 33 4f bd
       0.039758593 0.10514853 -0.03151975 -0.05058594
0003a0 26 5d 03 bd ab af 03 be 57 85 8d 3d 1e 7d c6 bd
       -0.032071255 -0.12859981 0.06910198 -0.09691833
0003b0 95 31 f6 bc e6 7a 7e bd 09 94 21 bd 5c 2a 0f 3d
       -0.03005294 -0.062128924 -0.039447818 0.034952506
0003c0 34 e1 4f bd 5b 7f c1 3d 65 c1 58 bd 4e bd 3c bd
       -0.05075188 0.09448119 -0.05291881 -0.046078973
0003d0 2f 12 a9 bc e7 ea b7 bd 55 07 a7 3d d0 7c f2 3c
       -0.020638553 -0.08980351 0.08155695 0.02960053
0003e0 53 0c ee 3d 4e 22 4f bd 43 c0 c6 bc 2a 28 bd bd
       0.116234444 -0.050569825 -0.0242616 -0.09236176
0003f0 e2 3a 50 bc 9a a1 d8 3b 53 9a 85 3d 0f 59 95 3c
       -0.012709351 0.0066110613 0.06523576 0.018230943

linear.weight f4 [4, 101]
000000 6b 99 e7 3d c8 f1 9a be 8e 77 12 3c 1f 8a fe bd
       0.11308559 -0.3026259 0.008939637 -0.12428688
000010 4c 85 15 3e d4 af fa 3d db c3 c1 3d 61 1b 8f 3d
       0.1460163 0.12240568 0.094611846 0.06987644
000020 24 73 cb 3d 29 d8 a8 bd 63 89 b1 3d 7a 24 26 3a
       0.09934071 -0.08244354 0.086687826 0.0006337833
000030 2c d7 e8 bd 94 d4 62 3d aa 16 9e 3c f4 97 d4 3d
       -0.11369166 0.05537851 0.019297916 0.10380545
000040 de 03 74 3c 2d ee a4 bd 68 9f bf bb 16 b5 70 3e
       0.0148935 -0.08053241 -0.00584786 0.23506579
000050 9c ec bf 3c e4 b8 ae 3d f1 8e 47 be 4e 68 77 3d
       0.023428254 0.08531359 -0.19488122 0.060402207
000060 3e e1 eb bc b6 37 ae bd 50 3d 29 bd fb 6c 42 be
       -0.028793927 -0.0850672 -0.041318238 -0.18986885
000070 1c 66 05 be c7 96 b5 bc 44 42 4e 3e c1 25 bd bd
       -0.13027233 -0.022166623 0.20142466 -0.092357166
000080 23 74 d1 3c bc 45 e0 bc 2a bb f3 bd bc 72 dd 3d
       0.025568074 -0.027377002 -0.11900933 0.108128995
000090 d5 b5 10 3c fb 3f 14 bd ce 62 72 bd 8b db 15 3e
       0.008832415 -0.03619383 -0.05917626 0.1463453
0000a0 ce 3c 65 3d 6c 18 8c 3b 94 34 04 bd d2 69 70 bc
       0.05596619 0.0042753723 -0.032276705 -0.014673667
0000b0 6a 73 4c be 70 f2 e6 3d dd 22 52 3d 0a 9e ed 3d
       -0.19965902 0.1127671 0.05130278 0.11602409
0000c0 59 1c e8 3c 10 fc 24 3e 1e a5 c0 3c d8 a3 fd bd
       0.02833383 0.16111779 0.023516234 -0.12384766
0000d0 4f e2 28 bc 38 1f 23 be 9a 07 66 3d 1f ec 18 bc
       -0.010307862 -0.15929878 0.056159593 -0.009333639
0000e0 b2 7a 30 3e 37 43 90 bd ab 0e 11 3c 5a 46 07 be
       0.17234305 -0.0704407 0.008853595 -0.1321043
0000f0 8e 0c f1 bd e9 64 1a 3e b6 96 96 3d d3 44 f3 3c
       -0.11769973 0.15077557 0.073529646 0.029695904
000100 d3 c4 ff 3c 1e e6 e0 3c 90 de 78 3b 8c e2 05 bd
       0.031221783 0.027453478 0.0037974454 -0.032686755
000110 c0 51 35 3c f4 34 0a 3e 49 fb 13 3e 3c 7d b3 bd
       0.011066854 0.13496763 0.14451326 -0.08764121
000120 83 7a e8 bd f6 4c 7b 3c 44 69 57 be 23 0e 05 be
       -0.11351492 0.015338173 -0.2103625 -0.12993674
000130 01 3a fa 3d 13 cc 94 3c 48 fd d3 3e 55 94 31 3e
       0.122180946 0.018163716 0.41404176 0.1734174
000140 32 ab df bd fa 8d d6 bd 25 1e 93 b9 88 a0 9f bd
       -0.10921325 -0.10476299 -0.00028060484 -0.07794291
000150 4b 6c d7 3d 96 d4 b9 bd cc d9 a1 3d fe 00 bc 3d
       0.10518702 -0.09073751 0.079028696 0.09179877
000160 4c 10 b9 3c 94 de 1f bd 56 1a 86 3c 4a 21 16 3c
       0.022590779 -0.039030626 0.01636998 0.00916321
000170 80 0e 74 be f8 5b 64 3d 66 7e e8 3d 17 0a 11 3d
       -0.23833656 0.05575177 0.113522336 0.035410013
000180 df 84 99 bd 74 40 98 3d 65 5b 59 bc ee bd 99 bc
       -0.07496046 0.074341685 -0.013266419 -0.018767323
000190 c0 1e 64 bd 52 6a d6 bd 5b 30 7a 3d 1b f9 9d 3d
       -0.055693388 -0.10469498 0.06108127 0.07713529
0001a0 12 40 2f 3e f0 b0 46 be 7f 93 05 be 2b cb 75 bc
       0.17114285 -0.19403434 -0.13044547 -0.015002052
0001b0 38 e9 3f bc 88 37 20 bd c0 44 eb 3c eb 3f e6 3d
       -0.0117133185 -0.03911546 0.028719306 0.1124266
0001c0 00 94 8d 3d e7 fc 82 3c be 48 71 3d 43 a1 37 bd
       0.069129944 0.015989734 0.058907263 -0.044831526
0001d0 be 5f 9a 3c 26 22 1e 3d f1 f1 ee bc 4b 76 3f 3c
       0.018844482 0.038606785 -0.029168101 0.011685918
0001e0 42 e4 8b be 23 c0 35 bd 90 37 e1 3d 95 ad 90 3d
       -0.27322584 -0.04437269 0.10996926 0.07064358
0001f0 ff 51 06 be 6c 24 f0 3c 43 14 05 be 5c 2f fb bc
       -0.13117217 0.029314242 -0.1299601 -0.030662231
000200 7b de f7 3d 73 a7 c7 3c b5 e5 c6 3d 05 f5 fc bd
       0.12102982 0.024371838 0.09711782 -0.12351421
000210 9d 65 f9 3c b5 70 4d 3c 2b f4 6a bd 4e d2 49 bd
       0.03044396 0.0125390785 -0.057361763 -0.049272828
000220 ee e3 42 3b 7c 89 1c bd ff 77 2e bd 4f f9 88 bd
       0.0029737907 -0.038217053 -0.042594906 -0.06688177
000230 8c 3d e5 bd 35 e4 62 3d c5 99 0e bc 56 58 83 bd
       -0.1119338 0.055393416 -0.008703654 -0.06413333
000240 c0 eb 7c 3d 93 0e 10 3d ff 57 36 be 10 83 16 be
       0.061748266 0.03517015 -0.17807005 -0.14698434
000250 88 5f f1 bc 6b ac 01 be ab 12 36 3d 8d a9 51 3d
       -0.029464498 -0.12663428 0.044451397 0.051187087
000260 66 a4 38 3e f8 f8 76 bd 85 c4 63 3d d8 9c cd bc
       0.18031463 -0.06029603 0.055607338 -0.025099203
000270 79 d8 28 be 9b f5 51 bd 44 cd c9 bd 43 21 37 bc
       -0.16488828 -0.05125962 -0.098536044 -0.011177364
000280 dd cd b1 3d 24 8f f6 3d f1 a7 5a be 4c 14 57 bd
       0.086818434 0.12039021 -0.21353127 -0.05250959
000290 ba fc 44 bd 15 c3 07 be 11 52 03 3d 1a 22 17 3e
       -0.04809258 -0.13258012 0.032060686 0.14759102
0002a0 9b 0f dc bd d3 ca e8 bd 85 6b 16 bd fd 0c 50 bd
       -0.10745164 -0.11366811 -0.036723632 -0.050793637
0002b0 c8 1a b7 3d 31 e2 1e 3e 7e b4 76 3d ef a8 16 bd
       0.08940655 0.15515973 0.060230725 -0.0367822
0002c0 87 01 77 3e 78 50 44 bd c0 a9 a8 3d f1 dd 3d be
       0.24121676 -0.047928303 0.08235502 -0.18541695
0002d0 a4 03 12 be 20 b8 5e b8 19 53 f1 3c 22 26 00 bd
       -0.14259201 -5.3100404e-05 0.02945857 -0.031286366
0002e0 e3 63 0f 3e 40 3e f1 bd 1c 0a a7 bc 5c a1 18 bd
       0.14002948 -0.11779451 -0.020390563 -0.03726326
0002f0 ba f6 1d 3e 0c 3a 7b bd 5a 95 52 bd 70 3a 2f 3d
       0.1542615 -0.061334655 -0.051411964 0.04278034
000300 bf c3 82 3d 58 ca ea 3d 8a b3 5f 3d da d1 53 3d
       0.06384992 0.11464375 0.05461458 0.051713802
000310 75 91 25 3e 49 9f 26 3d 9f b1 07 bd 88 e9 86 bd
       0.16168769 0.04067925 -0.033128377 -0.06587511
000320 f0 b2 0b 3e 98 0d 03 3e 78 2a 5f bc f5 ca 34 3d
       0.13642478 0.12798154 -0.013620965 0.044138867
000330 01 6e f1 bb a5 f9 77 bd 37 06 9f 3d 8c 52 05 3e
       -0.00736785 -0.060540814 0.07764857 0.1301977
000340 f1 59 a9 3d 52 4a 00 bc 80 65 29 bd 3f e9 fc 3b
       0.08269108 -0.007830219 -0.041356564 0.007718235
000350 c4 fd 46 bd ac b5 10 3d f0 f9 cb 3c db ff 13 bd
       -0.048581854 0.035329506 0.024899453 -0.036132675
000360 e9 f6 43 bb d8 85 82 3d 3a da 94 3d a9 64 db 3c
       -0.0029901809 0.06373185 0.07268186 0.026781397
000370 53 f2 4b bd 3e a8 62 3c f5 d2 05 3e 7b 94 78 be
       -0.049791645 0.013834057 0.13068755 -0.24275391
000380 67 95 3f bd 4d 37 c6 3d e7 f4 ad 3c f4 1a db 3d
       -0.04677334 0.096785165 0.021234943 0.106985
000390 0c 56 95 bc f3 ab 02 3e 34 49 2e 3e 76 83 1e 3d
       -0.018229507 0.12760906 0.17020112 0.03869959
0003a0 92 27 87 bd 24 e0 2f be 83 ed 93 be 42 e7 9b bb
       -0.06599344 -0.17175347 -0.28892145 -0.0047577927
0003b0 2f f9 91 3d d8 64 37 3c df 27 17 3d 7c 27 8e 3d
       0.07127606 0.011193477 0.03690326 0.06941125
0003c0 3c 80 43 3d 81 6c 08 be 69 0c 8b bd d2 ff 3e 3d
       0.047729716 -0.13322641 -0.067894764 0.046630688
0003d0 89 67 24 ba 34 95 de bc 60 97 21 be 56 91 9b 3b
       -0.00062715315 -0.027170755 -0.15780401 0.00474755
0003e0 23 80 fa bd 50 52 35 bb 78 72 ec 3d 43 63 2d be
       -0.122314714 -0.002766747 0.11545271 -0.16932397
0003f0 84 86 cd 3d fe e8 6b 3e dc ac 02 3e ea 87 d7 bd
       0.100354224 0.23038098 0.12761253 -0.105239704

linear.bias f4 [4]
000000 06 8a 13 3d 85 1d 18 3e 45 93 49 bd 91 a4 a4 3c
       0.0360203 0.14855011 -0.049212713 0.020098003
