parameters/best_model_102_1_0.003021306509112095.pth (torch, 239668 bytes, 6 tensors)

lstm_net.0.xh.weight f4 [408, 40]
00000000: 3569 513d a366 553c 0522 ae3d 7d7d 533d
00000010: c37d 383c 5213 ec3d 55b6 8f3c ea22 ad3c
00000020: 9b5b 623b d431 87bb e5ca 903d 5437 55bb
00000030: 3383 e03d df3f caba 718f 85bd 792a 24bc
00000040: 02c5 2ebd ef84 063d fa91 c53d 5aa8 bd3d
00000050: 1365 4d3d fb48 233d dece b33d dbdd 66bd
00000060: 59fd 0abc cab6 3abd 8cc6 0b3b 6982 99bc
00000070: 90a6 56bc b0f1 9cbc 022a b33c aad3 3e3d
00000080: f2af 953d cb23 9fbc d84f b73c 8afe 693d
00000090: 38a6 c43c de8f a1bd e130 ddbc 3b54 42bd
000000a0: 9cc9 ba3b 97f6 923b 68a8 a0bd 9b62 ec3c
000000b0: 64b6 0abd 9fb4 2bbd fff3 e7bd 4cd9 e5bd
000000c0: 957b 9d3d 6948 1cbd b2d3 76bc 7fb3 e3bd
000000d0: 82cb 963a a87a 903c 3bb4 fe3c 9ac6 48bd
000000e0: 75ce c73c 9b54 2ebd 22d2 94bd daaa 0cbd
000000f0: 8e14 fc3d 6ac9 b7bc 5ed5 db3b 949c 98bd
00000100: 57a2 853c 60ed 363d 6cb3 51b9 70d5 44bd
00000110: 3def 553c abfb 563d ff45 f13c 3263 063d
00000120: 4282 ff3c 49fb 4e3d 13e1 b8bc dba8 db3c
00000130: 2f41 ab3c d17c acbd 3bd4 c9bd 2cb5 6fbd
00000140: 8a39 e43d 9cf0 943d d8b2 c73d 9979 8c3d
00000150: e4ae d93d 557a bc3d c1d0 72bc bf4d 133e
00000160: f31c b0bd 9088 17bd d30a 4a3d fdd1 6d3c
00000170: 7c4a 88bb fe2a 88bd 40ee db3d 770e 40bd
00000180: 11ef 493d e29c 9e3d 324c ab3d ea09 0a3e
00000190: 6a6a 053e b1d5 e63c 16dd d53d eccd b23d
000001a0: 04c7 333d d326 a23d ee19 9cbd 2f6b 9d3d
000001b0: eb7f a13d 00dd 6e3d 30cd 8c3d 7191 89bc
000001c0: c227 973a 610e b4bd e8d3 58bd 092c 83bd
000001d0: 60fd 99bd 4c6a 953d 4329 6a3d 4c68 3bbd
000001e0: a639 ad3d 0b25 da3d 65db 253c 1429 f43d
000001f0: 0aab db3d e0c6 8ebc 61f8 0b3e b7c6 a53c
00000200: bf07 023d d9cb 06bb b06f 2c3d 8791 093d
00000210: ee6f 32bc 78d9 dfbc bb66 9e3b cad1 fa3d
00000220: eca1 a93d ce45 0bbb 5e12 a33c 87b2 a63d
00000230: f0cc 34bd f822 4f3d da93 74bb ff9c 7fbd
00000240: 4971 013e 4f0a 783c 14ad 913d 88b7 193d
00000250: 1633 013b c97b 18bd 18ad 93bc bd24 ff3c
00000260: a731 28bc b31f f9bc bfbb a43c c5af b0bd
00000270: e920 b2bd e7f4 b8bd 49f7 5f3c d504 c73b
00000280: a10b f2bc 7050 dabd 9b15 1c3d 9e81 ddbc
00000290: f269 89bb 0519 01bd 8e95 cb3d 9ff3 203d
000002a0: 09d7 39bd c989 bebc 8784 f1bd fd12 88bd
000002b0: 6d45 c2bd 24f3 5bbc d55c 40bd 64c2 e9bd
000002c0: d27a 9dbd 16bf e3bd e9ee 6f3d c492 32bd
000002d0: 6715 5a3d 8239 8cbd 3ac9 bd3c 9d7e a73d
000002e0: 57db eebc 2d43 f23d 8ca7 773d 98b7 3b3d
000002f0: e14e 3c3d bad1 b7bc a936 bdbd d48c 853d
00000300: d78a 1abd 65bf 08bd d5ab f03b 89dd cabc
00000310: 098c 20bb 3b71 e43c 64d0 61bd fb74 a73c
00000320: 01bf 9abd 2fdc c43d 6b4c cf3d 0207 a33d
00000330: fbb3 233d 1a19 c93d aece 923d 91b2 d73d
00000340: 05b3 1d3c 2602 a43d 9b4c 383d d41d b93d
00000350: b78e 1f3d 054a 963b 3b01 da3d 34bb d13d
00000360: 62f4 d5bc ad01 b6ba 7413 0cbd 8892 543d
00000370: aca2 9e3d b5b1 863c ab08 abbc bec0 cf3d
00000380: 13a5 17bc 3c8f 86bd d267 1bbd a94d ce3c
00000390: c1a4 0c3d cad0 8b3d 8476 843d af53 763d
000003a0: 5ab3 d3bc a799 f8bc 7872 4a3d 2501 0b3d
000003b0: 0081 01bd 7326 a7bd 2df1 a9bc b92f a63d
000003c0: 8e25 96bc b75b 20bc 3f81 143d eca6 063e
000003d0: fb81 b3bd fa93 1b3c bd12 a23d cecf 53bb
000003e0: caa1 f83d 60dc a8bd 6b90 f63c e2bd c73c
000003f0: a6bc 673d e446 b43d 8cb1 55bd 0ff3 6ebd
0.051125724 0.013024959 0.085025825 0.051633347 0.011260453 0.115271226 0.017542997 0.021134812
0.0034539464 -0.004125813 0.07069949 -0.0032534199 0.10962524 -0.0015430412 -0.065215 -0.010019892
-0.04266835 0.03284162 0.096469834 0.09260626 0.05014522 0.03986452 0.08779691 -0.05636392
-0.008483254 -0.045584477 0.002132806 -0.018738942 -0.013101235 -0.019158214 0.021870617 0.046588577
0.073089495 -0.019426247 0.02237694 0.057127513 0.02400504 -0.078887686 -0.027000846 -0.04744361
0.0057003032 0.004484962 -0.07844621 0.028855613 -0.033865348 -0.0419203 -0.113258354 -0.11223087
0.07689587 -0.038154993 -0.0150651205 -0.111182205 0.0011504742 0.017636612 0.0310918 -0.049017526
0.024390439 -0.042561155 -0.07266642 -0.034342624 0.12308608 -0.022434909 0.006708785 -0.0745174
0.016312761 0.044659972 -0.00019998633 -0.048055112 0.013057527 0.052486103 0.029452322 0.032809444
0.031190041 0.050532613 -0.022568261 0.026813915 0.020905105 -0.08422244 -0.09854933 -0.05852239
0.11143787 0.07272455 0.097509086 0.068591304 0.10629061 0.092030205 -0.014820279 0.14385127
-0.085992716 -0.03699547 0.04932673 0.014515397 -0.00415927 -0.06648825 0.10738802 -0.046888795
0.049300257 0.07744767 0.083641425 0.13480344 0.13028875 0.028178068 0.104425594 0.08730683
0.043890968 0.079175614 -0.07622133 0.07686459 0.078857265 0.05831623 0.06875074 -0.016792985
0.0011532234 -0.08791805 -0.052936465 -0.064048834 -0.075190306 0.07295665 0.057168256 -0.045753762
0.08458261 0.10651597 0.0101231085 0.119218975 0.107259825 -0.017428815 0.13668968 0.020236356
0.03174567 -0.002056828 0.0420987 0.03358605 -0.010890944 -0.027325377 0.004834024 0.12247045
0.08282837 -0.0021251324 0.01990622 0.0813952 -0.044140756 0.05057046 -0.0037319572 -0.062405583
0.12640871 0.0151391765 0.0711309 0.037528545 0.0019714287 -0.037227426 -0.018026873 0.031145448
-0.010265744 -0.030410623 0.020109056 -0.086272754 -0.08697683 -0.090310864 0.013669797 0.006073574
-0.02954656 -0.106598735 0.038106542 -0.027039345 -0.004193538 -0.031518 0.09940635 0.039294835
-0.04537109 -0.02325906 -0.11792856 -0.06644247 -0.09485898 -0.013424668 -0.04696353 -0.1141403
-0.07689442 -0.11120431 0.05857745 -0.043596998 0.053243067 -0.06846906 0.023167241 0.081784464
-0.029157324 0.11829219 0.06046252 0.045829386 0.045973662 -0.022438873 -0.09238941 0.065210015
-0.037730064 -0.033385653 0.0073447027 -0.02476384 -0.002449753 0.027886024 -0.055130377 0.020441523
-0.07555962 0.09612309 0.101219974 0.07960321 0.039966565 0.09819241 0.07168327 0.10532106
0.009625201 0.08008222 0.04499493 0.090388924 0.038954463 0.0045864605 0.10644766 0.10240784
-0.026117507 -0.0013885997 -0.03419824 0.051897556 0.07745871 0.01644216 -0.020878157 0.101441845
-0.009255665 -0.065702885 -0.037940808 0.025183516 0.03433681 0.06826933 0.064679176 0.0601384
-0.025842357 -0.030346705 0.049425572 0.03393664 -0.031617165 -0.081616305 -0.020744884 0.08114571
-0.018328454 -0.0097874915 0.03625607 0.13149613 -0.08765026 0.00949573 0.0791373 -0.0032319906
0.12140234 -0.08245158 0.03009816 0.024382535 0.056576394 0.08802584 -0.052171275 -0.058337267

lstm_net.0.xh.bias f4 [408]
00000000: 61b1 133e bbf1 543d 0e89 32bb e83f 8c3d
00000010: 3ab4 493b e7cc 9b3d 2c9a 9bbc 3c11 093d
00000020: db70 ba3d 0199 813b ae6e d73c 6242 6b3d
00000030: 9efe 7bbd f33f 61bc e7b9 683d db31 9f3d
00000040: 2b40 7bbd ff17 85bd a039 b93d bf17 d53d
00000050: 64ad 743d 3572 c43d f8e2 81bd d54e 353e
00000060: c4e1 d6ba 6c20 423d 3692 8cbc 8d24 febc
00000070: 837e 2a3d f49a aa3c 0803 b63d ab9f 623d
00000080: 9ad1 163d 92ae 4abd 1af3 29bd b185 d7bc
00000090: d28a 5bbd fca8 323d 6d98 2ebd cff7 48bd
000000a0: aa52 0f3e d568 433d 1f15 e83d a80d 913d
000000b0: 8424 b2bd 2490 943d 6708 ad3d 2787 1ebd
000000c0: 8e31 fb3d 98bd 023d 5760 733d 724f 253d
000000d0: 61cf 893d ca34 edbd ef34 823d e52e f73b
000000e0: 341a a0bd a9fd 493c f0f4 9fbd e830 a53d
000000f0: a5ac 7dbd 8428 89bd 679e 1ebd a2db 50ba
00000100: a10c 883c ab7a c7bc c70a bf3d 8166 ca3b
00000110: 10e2 c7bc feae 1b3d 8c05 bcbd 3998 313e
00000120: fd2d 883d 9e17 97bd f264 9cbc 1c3e 04bd
00000130: b6b0 35bd 4e5c a53d 00ba a539 71e1 113e
00000140: 24fa 5e3d 2e2a 55bc 766e 823d 39b5 c13d
00000150: 8076 0d3d eb3f 6a3c 2774 cabd c858 31bb
00000160: 1fdc f5bd b939 2e3d fd80 8ebd 46e5 773d
00000170: 7a9d c93c 7562 6e3d bfa8 0c3e 77c1 c4bd
00000180: 059b 123d f59c 9cbb eefe 0abd 8483 a2bd
00000190: 2f74 7e3d 0f04 06be 2327 efbc 9682 0bbd
000001a0: e73e c63d 6067 cabd dcb0 8bbb 6792 ca3d
000001b0: 2327 e9bd bc43 3ebd 40e6 c9bc 3b84 9cbd
000001c0: 0fd8 11bd 1799 ea3c fffe e43d 9ed0 61bd
000001d0: 87e5 db3c 0004 cabd 3dd8 513d 7448 ad3d
000001e0: 7365 d1bc b5fb bd3d 3056 123d 6167 b8bd
000001f0: cfb4 c8bd f971 8ebd 2f72 4a3d 93d0 e13c
00000200: 2143 99bc 944c 54bd 8f5b d0bc 663f df3c
00000210: d523 51bd 9cb7 bfbd f186 1f3d 3080 d33b
00000220: f9b9 b73c ef1c 0cbd 4bcd 3bbd c030 e9bd
00000230: 2693 bb3c 7026 afbd dcb9 d5bd d11a 9c3c
00000240: 83cf 9abb f361 823b d167 363b 2ed0 99bd
00000250: af2c 2e3c 1506 803d 4e26 8bbc 3d12 693d
00000260: 16de c5bd d132 b6bb 63a8 943a d8a4 333c
00000270: 3a3a b5bd 9175 793d 610d 963c 702b 51ba
00000280: 6542 833d b88f 9cbc 00ad 44bd 8bbf fabc
00000290: 4da9 f2bc 4820 e8bd 50d5 d8bd 7467 543b
000002a0: 1d10 5e3d 5890 c3bc 5207 72bb e214 14bc
000002b0: 616c 1d3d 70a6 babc b031 0cbe 95e9 5ebd
000002c0: 6029 08be 925e 273d 34b4 29bc 4ab8 bbbd
000002d0: 3e8d fb3d a4b8 cebd 3335 8ebd 5c67 16bd
000002e0: 093d 9b3d b62f 1e3d 1cbb a4bc 11c1 9abd
000002f0: 3294 46bd c565 393b c02d 953d 05d9 e0b9
00000300: 0560 93bd 354f 963b 01d5 883d 440b 06bd
00000310: 908a d3bc 5a3f febd e5b9 023d 9da9 fbbc
00000320: f873 693c d66a 5bbc 992a 9c3d a330 8ebd
00000330: 997c 9abd 9b76 bdbd cca1 be3c dc29 90bc
00000340: 3a59 bf3b 2672 ab3c 0687 df3c b624 803d
00000350: 5946 0bbd 2f79 a3bd 386a 103d cfea a43d
00000360: a6b6 103e 732f e73c 18c3 dfbd 8885 c6bd
00000370: dbb6 0cbc bea0 763c 946b ee3c 4a0d aebd
00000380: 8fd9 603d b2d8 da3d 6535 3739 1fac c9bc
00000390: 29c5 a2bd 012d 503d 7bb6 36bd b530 c93d
000003a0: 8921 bcbd 86de c93d 0488 b5bd 6fbf b73b
000003b0: 08ab 72bd 05b0 02be 6729 a6bd 91f1 a6bd
000003c0: fe3f 86bd 53dc 56bd 7aeb b3bd abca 973a
000003d0: 7ad8 973b aaaa 93bd ee28 f23c a4ef 843d
000003e0: 2e56 7cbc ea85 aa3d 040a 723c 0c44 3a3d
000003f0: 1524 8fbd be36 723b ee6c 793c 9a10 d3bd
0.14423133 0.051988345 -0.0027242335 0.06848127 0.003077759 0.076074414 -0.018994413 0.0334637
0.09103557 0.003955007 0.026297893 0.057436354 -0.06152212 -0.013748157 0.056817915 0.07773181
-0.061340492 -0.064987175 0.09044194 0.1040492 0.05973567 0.09592096 -0.06342119 0.17705853
-0.0016394188 0.0473942 -0.017159563 -0.031023288 0.041624557 0.02082584 0.08887297 0.055328052
0.036820985 -0.04948289 -0.041491605 -0.026308866 -0.053599186 0.043618187 -0.042625833 -0.049064454
0.13996378 0.047707397 0.113321535 0.07082683 -0.08698371 0.07254055 0.08448868 -0.03870311
0.12265311 0.031919092 0.05941805 0.040358968 0.067290075 -0.11582334 0.063577525 0.007543432
-0.07817498 0.012328544 -0.0781039 0.08065969 -0.061932225 -0.06697181 -0.038725283 -0.0007967298
0.016607584 -0.024350485 0.093282275 0.00617677 -0.024399787 0.038008682 -0.091807455 0.17343225
0.066493966 -0.073775515 -0.019091103 -0.032285795 -0.044357978 0.08074246 0.00031609833 0.14246155
0.05443777 -0.013010545 0.06368725 0.094583936 0.03453684 0.014297466 -0.098854356 -0.0027060974
-0.120048754 0.042535517 -0.06958196 0.060521387 0.024611223 0.058199365 0.13736247 -0.09607213
0.03579237 -0.004779453 -0.033934526 -0.07935241 0.06212252 -0.13087486 -0.029193467 -0.034060083
0.096799664 -0.098829985 -0.0042630266 0.09891205 -0.11384418 -0.046451315 -0.024645925 -0.076424085
-0.03560644 0.028637452 0.11181449 -0.055130593 0.026842846 -0.09864044 0.05123161 0.08461085
-0.02556107 0.09276525 0.035726726 -0.09004093 -0.098001115 -0.06955332 0.0494253 0.027565276
-0.018708767 -0.051830843 -0.025434284 0.02725191 -0.051059563 -0.093611926 0.03894705 0.00645449
0.022427546 -0.03420728 -0.04585008 -0.113862514 0.022897314 -0.08552253 -0.104358405 0.019055756
-0.0047244444 0.0039789616 0.0027832875 -0.0751041 0.010630771 0.0625116 -0.016986039 0.05690216
-0.096615 -0.005560257 0.0011341687 0.010964595 -0.088489965 0.060903136 0.018316926 -0.000797919
0.06409148 -0.0191115 -0.04801655 -0.030608913 -0.029621745 -0.11334282 -0.10587561 0.0032410296
0.054214586 -0.02387254 -0.0036930633 -0.009038182 0.038433436 -0.022784442 -0.1369083 -0.05442198
-0.13297033 0.040861674 -0.010357905 -0.0916601 0.12282799 -0.10093811 -0.06943741 -0.036719665
0.07580001 0.03861972 -0.020108752 -0.07556356 -0.048481174 0.002828942 0.07284117 -0.00042886302
-0.07196049 0.004587079 0.06681252 -0.032725587 -0.025822908 -0.12414427 0.031915564 -0.030720526
0.0142488405 -0.013392171 0.07625312 -0.069428705 -0.07543296 -0.09251138 0.02327051 -0.017598085
0.005839494 0.020928454 0.027286064 0.06257002 -0.034002636 -0.07982098 0.035257548 0.08052599
0.14132175 0.028220868 -0.10925883 -0.09693438 -0.008588518 0.015052972 0.029104032 -0.084986284
0.05489498 0.106858626 0.00017472131 -0.024618207 -0.079477616 0.05082417 -0.04460762 0.09823743
-0.09186084 0.09856896 -0.088638335 0.0056075375 -0.05924514 -0.12762459 -0.081133656 -0.08151544
-0.06555174 -0.05245621 -0.08785148 0.0011580786 0.0046339603 -0.07210286 0.029560532 0.0649102
-0.015401406 0.08326323 0.014772896 0.04547505 -0.06989304 0.0036958898 0.015223725 -0.10305901

lstm_net.0.hh.weight f4 [408, 102]
00000000: 81c1 85bd 0f87 9cbd e3a4 7e3c c613 9dbd
00000010: 17eb 2f3d 509c 673c 1e2e c7bd 437f 7ebc
00000020: fb17 6d3d c793 953a 6f5e 8f3d 3ec0 4c3d
00000030: f010 43bd e79d 653d cf59 173c f768 a1bd
00000040: 274e 30bd 00ca a3bc 6604 c2bd 374d 603d
00000050: c1ee 5abc 1904 253c 0568 ab3d 2d2e 32bd
00000060: 8af8 783d c7c9 153d 7351 523c 3ef5 433d
00000070: ac12 31bd 47a3 a03c f7a9 06bd 5bf5 f33c
00000080: e79c c0bd 2065 473c d187 c9bd 1d88 5f3d
00000090: 4fe9 5a3d 972e 973b 338f 733d 4a13 86bc
000000a0: 10f2 c33d d383 c73d 50df 3fbd a364 5dbc
000000b0: 9602 c43d 7f05 913d 57b6 173a 40bc 693c
000000c0: 11b6 593d d357 24bd d4d8 ef3b 5ec8 7d3d
000000d0: 0941 ab3d 544c b93d 42e2 a83d 6bfe fdbc
000000e0: dbb9 abbb 426d ba3c c223 923c db6e 99bb
000000f0: 47d4 9c3c 14e9 193d 5273 4bbd ea16 81bd
00000100: ff5d 133d 14e8 1a3d 6075 763d 2232 ae3d
00000110: aa71 193d 8788 c63d 9b72 313d aa99 c23d
00000120: abce a13d 6674 8d3d 4efe 3b3d 4d18 98bd
00000130: 2b88 a33d 4e19 be3c d156 8f3c 722d e9bc
00000140: 2002 0bbd bc35 bc3d bde5 7dbc 671f a3bd
00000150: 514f b23d 3814 b7bd 7a31 5e3d 8dbc 82bd
00000160: ed9a af3c 9919 9c3d b2c2 b7bd ca6d 81bd
00000170: 5c95 823a 7362 e33c d3ba 6dbd 34c1 2ebd
00000180: f5a4 28bd 93fd a5bd b8a8 853d fe99 53bd
00000190: 0d8a 66bd 87b4 1fbc f695 80bd 3dbb 81bd
000001a0: 2295 c23b 02d1 9d3d c7dc a8bd 5cc1 6d3b
000001b0: 841c 24bd 844e 1e3d fd18 86bd 0617 593d
000001c0: 3542 09bc 6961 0fbc 88e9 b13d 16fd 97bd
000001d0: 836b bebc 3e32 4bbc 935c 43bd aa7d dd3c
000001e0: e17d 1d3d 6774 853d 5685 b03d 7902 cdbb
000001f0: 6369 15bd e6da 7e3c a692 813d 5638 23bd
00000200: f2f2 413b 8f6e 313d 84b0 92bd 51de 843c
00000210: 4623 45bd 6729 09bd 5688 9cbc 52d5 abbd
00000220: 6ccb c5bd 299f 99bd 1456 87bc f78c 8ebd
00000230: d58c 8b3d 26b8 9f3d b7fe c9bd 4949 943d
00000240: 9617 7cbd 05ec e83c 04ef b93d 7e42 a6bd
00000250: f0e2 b3bd 9ee6 073b 76b0 4bbd ac27 b8bd
00000260: 6170 8ebd 91b3 843a 97ba 51bd 65fe fdbb
00000270: ad3b 903d b012 31bc d8f0 9cbc d6f4 9fbd
00000280: d2f4 3e3c f219 05bb e461 b73d d3e1 95bc
00000290: 37ad 613d e6f9 0cbd 0bf8 a63d 9ebd f53c
000002a0: 8ef9 d3bc 0f8b 76bd a4d3 80bd 0e11 863d
000002b0: 738d a0bd 84c4 193d 5f87 81bd 1be4 8d3d
000002c0: 0c02 debc 67ca fabc 44b6 47bb 67ec 46bd
000002d0: ce76 efba d460 bf3d 2533 38bd b3e7 18bd
000002e0: 3846 913d c39b d3ba 79ab 2fbd ccec 33bd
000002f0: debc 3abd 3e50 c2bd 8c17 adbd 194c 7b3d
00000300: 7d89 adbd 3971 9fbc 865f 6abc 050d bdbd
00000310: d507 90bd 5ce9 ab3c 9baf febc e5fd 10bd
00000320: c0de 7fbd ef9d c53d 55ed b73d 65ba b2bd
00000330: ad7c 053d 6682 c5bd 13b1 963d 73bb a33d
00000340: 2a38 443b 0073 a2bd eb3c c73d ab0a 453d
00000350: ab24 1d3d 6e80 ab3b 1220 a23d 84b6 983c
00000360: 700b 04bc 1f49 0c3d 7f7d 9e3c 7656 443b
00000370: 41fb f63c 4d7e 02bd 2519 94bd ac16 95bd
00000380: 6e34 acbd 9240 81bd 832c 3d3a 0845 7b3d
00000390: aef7 c13d 9790 d93b 0951 7fbd ed67 853d
000003a0: 853b f83c f7cd a0bd a12c 10bd 99b8 d2bc
000003b0: 7926 503c facf 953a 6c96 0a3d 5069 073d
000003c0: be50 943c 8607 b23c b884 a5bc b490 8e3d
000003d0: 8481 a1bd afa9 ea3c 1f09 873b 4318 8bbd
000003e0: bb92 c2bd eacb 6c3d 1086 4d3d 6b48 81bd
000003f0: 8dc8 943c 1b1a f0bc b54f a9bd 2bea 163b
-0.065310486 -0.07642948 0.015542242 -0.07669787 0.04294881 0.014136389 -0.09725593 -0.015533271
0.057884198 0.0011411839 0.07000434 0.049988024 -0.047623575 0.05605879 0.009237721 -0.078813486
-0.043043282 -0.019993782 -0.09473495 0.054761138 -0.013362587 0.010071778 0.083694495 -0.043501068
0.0607839 0.036569383 0.012836802 0.047841303 -0.043230698 0.019609107 -0.032876935 0.02978008
-0.09404927 0.012170106 -0.09840358 0.054573167 0.053445157 0.0046137082 0.059462737 -0.01636662
0.09567654 0.0974194 -0.046843827 -0.013512763 0.09570806 0.070811264 0.00057873636 0.014266074
0.053152148 -0.04012282 0.007319549 0.061958663 0.08362014 0.090477616 0.0824628 -0.031005105
-0.0052406616 0.022757176 0.017839316 -0.0046824045 0.01914419 0.037575796 -0.049670525 -0.06303199
0.035978314 0.037818983 0.06017053 0.08505656 0.037461914 0.09694009 0.043322187 0.09501965
0.07900747 0.06906967 0.04589682 -0.0742651 0.07984956 0.023205426 0.017497452 -0.028464053
-0.033937573 0.091899365 -0.015496668 -0.07964974 0.08706535 -0.08939403 0.054246403 -0.063836195
0.021436179 0.0762207 -0.08972682 -0.06319769 0.0009962725 0.027756905 -0.058039498 -0.04266472
-0.04117294 -0.08105006 0.06526321 -0.05166053 -0.056284 -0.009747631 -0.06278603 -0.06334541
0.005938188 0.07705881 -0.08245235 0.0036278581 -0.040066257 0.038649097 -0.06547735 0.053000472
-0.008377601 -0.008751252 0.08687121 -0.07421319 -0.023244625 -0.012402115 -0.047695708 0.02703746
0.038450126 0.065163426 0.08619182 -0.0062563983 -0.036477458 0.015555119 0.06326799 -0.039848648
0.002959427 0.043318328 -0.07162574 0.01621929 -0.048129342 -0.03348675 -0.019107979 -0.08390297
-0.0965794 -0.075010605 -0.016520537 -0.06960481 0.06813971 0.077987954 -0.09863036 0.072405405
-0.06154593 0.028432855 0.09078792 -0.08118151 -0.08783519 0.0020736824 -0.049728833 -0.08991942
-0.06955028 0.0010124316 -0.051203337 -0.0077512735 0.07042632 -0.010807678 -0.019157812 -0.078103706
0.011655049 -0.0020309654 0.08954218 -0.018296158 0.05509683 -0.03441801 0.08152779 0.029997643
-0.025875833 -0.06019121 -0.06290367 0.06546222 -0.07839479 0.037540928 -0.06324648 0.06928273
-0.027100585 -0.030614091 -0.003047363 -0.048565295 -0.001826966 0.093446404 -0.04497065 -0.03733034
0.07093471 -0.0016144443 -0.04288814 -0.043927 -0.045590274 -0.09487961 -0.08451757 0.06135187
-0.084734894 -0.019463168 -0.014305001 -0.09230999 -0.07032744 0.020985298 -0.031089595 -0.035398383
-0.06246829 0.09649264 0.08980814 -0.08726958 0.032589603 -0.09644012 0.07357993 0.079947375
0.0029940703 -0.07932091 0.09728416 0.048105877 0.038365047 0.005233816 0.07916273 0.018641718
-0.008059368 0.03424942 0.01934695 0.0029958761 0.030149104 -0.03185873 -0.072313584 -0.07279715
-0.08408438 -0.06311144 0.00072164106 0.06134513 0.09471069 0.006639551 -0.06233314 0.06513963
0.030301819 -0.07851785 -0.03519881 -0.025722789 0.012704485 0.001142978 0.03383486 0.03305942
0.018104907 0.021732103 -0.020204887 0.06961194 -0.07886031 0.028645365 0.0041209604 -0.06791737
-0.09500643 0.057811655 0.05017668 -0.06312641 0.018162036 -0.029309323 -0.08267156 0.0023027759

lstm_net.0.hh.bias f4 [408]
00000000: 8a6c 923c 25d3 503d ee55 6ebd 4a5e 913d
00000010: a8b8 acbd c563 143d b20a 503d 9ca0 d93d
00000020: f09b 253c 81da 723d 0ac1 10bc 0a87 503d
00000030: a26b 26bd 3665 113e f55e 32bc 5e43 c43d
00000040: 62bc 35bd eb6d afbd 0e9c 08bc 5778 b13d
00000050: ee19 8bbd 95af 103e 8cda 89bd b072 bc3d
00000060: e789 d43d d7bf dabd 5312 8d3d 4908 2d3d
00000070: 2e32 80bd 33c7 b23d 7196 2fbd 4ce6 b83a
00000080: df64 483d 9b06 0ebe 34d0 633d 3bcb 8bbc
00000090: 5fda f63d 0cbe 783d 62fd 9b3d 9c50 563c
000000a0: e821 f53d 33a9 533d 50f6 1dbd 79c0 1f3d
000000b0: b46b 2e3d 9f23 143b 6b50 b73d 1ace d23d
000000c0: 08e0 70bc 0064 43bd 0ceb bfbd b94a a13d
000000d0: ea53 47bd 015b 5a3c 55a2 2abd 11f0 cbbd
000000e0: 20c9 e83c 8da4 9e3d ec25 babd 7c8a 813d
000000f0: dd9f febc 6ad3 1f3d 92c8 093e 375a df3d
00000100: b1e1 5d3d bd28 03bd 9624 c9bd dec1 08be
00000110: 2396 b9bd e3f7 c3bd 181d 50bd 0d0b cf3c
00000120: 22ea 003d cbb1 fa3a 2abc d4bc 23aa 87bc
00000130: 5bb9 c2bd e6d0 af3b 9244 bdbd 7a65 093e
00000140: 8fc6 2dbd 8247 213d 24fd 0f3e 57de 3a3d
00000150: ca35 b5bd c0f7 543d 853e ecbd 53b1 9bbd
00000160: e427 06be d35d fe3d cd05 e3bd a42b d43d
00000170: 0dcd b2bc 2907 d23d e4d5 ff3d 0bc1 2ebc
00000180: 5371 c53d 04a2 06be 9b92 a4bd 0b19 c33d
00000190: ce2a 453b e911 28bd 7bb8 dbbc 2b4c 733d
000001a0: 7df9 ca3d 6536 c13c 155f b43c c326 ea3c
000001b0: e410 0bbc 5fdc e4bd a2d1 75bb 1335 9f3b
000001c0: ce77 77bd 4ddb bbbc b703 fd3d e5d7 0d3c
000001d0: b1ad 193c a29c 7f3d e211 fa3c d35e 4e3d
000001e0: 9c56 ebbb 7ad8 a53c 398d bdbd c9f8 8cbc
000001f0: 74d9 31bd 6864 cdbb 35ee 59bd f14f 95bd
00000200: 82d7 32bd 3aa7 b73d e222 5bbc d313 1a3d
00000210: 4315 fd3d e821 d6bc f6d3 6c3d 9645 243e
00000220: 45da 3d3d a077 8d3c 5fda 5cbd b842 9ebd
00000230: d1cd ce3d 4c28 ee3a 0851 14be 17ca d63d
00000240: 49dd c33c 7c67 8cbd 1ce6 24bc adab 923a
00000250: 1bab b33c f14f 523d c435 1f3d f6aa 4abc
00000260: 9f04 b8bc fb3f 4ebd ef3a b8ba e8fe e2bd
00000270: 7945 8cbd 9175 cd3a dd27 3f3c 3eb1 c23d
00000280: e136 e5bd 2a17 b2bd 1b8b ca3d af78 453d
00000290: a5ee bbbd 03d8 9b3d 2234 5b3d 16c7 06bd
000002a0: 0235 80bd 189c 8dbd ee1f 4ebd d99d ca3d
000002b0: 269e c2bc d2e8 21bd b158 53bd ba1a 8a3d
000002c0: 5d17 6a3d 1c7b c23d f8ff 9f3d d589 c1bd
000002d0: 7bef b23d bda5 2a3b f8b3 87bb 808b 083d
000002e0: 8a21 823b 9840 26bd d7e5 a43d 6b0b 9abd
000002f0: 6fda cc3c 2ccd d0bc 89cd dab9 b25b 3abb
00000300: f907 f73c 3c99 8c3d dc08 54bc ca58 5a3d
00000310: 5f4d 11bc ff60 7bbc b661 fbbd b045 bc3c
00000320: fa6b d8bc 91c3 d93c b320 20bd f564 91bd
00000330: 739b b1bd 6969 cfbc fc90 6bbc 35de 843d
00000340: 0410 c4bd fd02 893d 75eb 40bd e0ca fe3c
00000350: 37c2 c4bd 5a96 0cbd 303d ee3c 0815 a0bd
00000360: 15de 8d3d 19e2 0cbe 816c 06be 75ac 11bd
00000370: 1cbe c0bd 73c5 8b3d 4ed5 c3bd bf21 27bd
00000380: ab64 553d 8c05 e4bc 6091 8a3c 1b5f 8f3d
00000390: fb8f 9ebd a076 313d f135 383d c3c6 b63d
000003a0: 0cd8 03be 1182 043e 5372 cdbd 4912 ab3d
000003b0: d425 41bb d7a4 dabd 4414 d6bc 89c3 47bd
000003c0: af7e 513c b9aa 183b 5028 d8bd daef 883d
000003d0: 747d 0b3e 8a4a 14be 584e 8abd 2606 9f3d
000003e0: 2dac 4bbd a08e 72bd 6fda 83bc 296c ee3d
000003f0: e6a1 21be 6a8f 8ebd ec6e 583c 28f7 9e3d
0.017874021 0.050982613 -0.058187418 0.07098062 -0.08433658 0.03622796 0.05079145 0.10626337
0.010107979 0.059290413 -0.008835087 0.050910033 -0.04062999 0.14198765 -0.010886897 0.09583162
-0.04436911 -0.08565887 -0.008337988 0.08665531 -0.06792055 0.14129479 -0.06731138 0.092015624
0.10377865 -0.10681122 0.06888261 0.04224423 -0.06259571 0.087294005 -0.04286808 0.001410672
0.048924323 -0.13869707 0.05561848 -0.017064681 0.1205337 0.060728118 0.07616688 0.013080742
0.11969358 0.051675033 -0.03856498 0.039001916 0.042583182 0.002260424 0.089508854 0.10293217
-0.014701851 -0.04770279 -0.093710035 0.0787558 -0.04866401 0.013327361 -0.04165872 -0.099578984
0.028416216 0.07746229 -0.09089264 0.06325242 -0.031082088 0.03901998 0.13455418 0.10905879
0.054170314 -0.032021273 -0.09821431 -0.13355204 -0.090618394 -0.09568765 -0.050808996 0.025273824
0.031473286 0.0019126473 -0.02596863 -0.01656062 -0.0950801 0.005365479 -0.092415944 0.13417616
-0.04242569 0.039374836 0.14061409 0.045622196 -0.0884815 0.051994085 -0.11535362 -0.07602181
-0.13101155 0.12420239 -0.11085091 0.10359886 -0.021826291 0.10255272 0.12491968 -0.010666142
0.096407555 -0.13147742 -0.08035775 0.09526261 0.0030085328 -0.041032705 -0.026821366 0.05939881
0.09910867 0.023585508 0.022017995 0.028582936 -0.008487914 -0.11174845 -0.0037508984 0.004858622
-0.06041699 -0.02293172 0.12354224 0.00865743 0.00937979 0.062405236 0.030526105 0.0503834
-0.0071819555 0.020244826 -0.09255452 -0.017208474 -0.04342027 -0.006268073 -0.053205688 -0.07290638
-0.043662556 0.08967443 -0.013375016 0.037616562 0.12357571 -0.026139215 0.05781933 0.1604217
0.046350736 0.017268956 -0.053919192 -0.07727569 0.1009785 0.0018169968 -0.14484036 0.10487764
0.023909228 -0.068556756 -0.010064628 0.0011190079 0.021932175 0.05134577 0.038869634 -0.012369862
-0.022463141 -0.050353985 -0.001405565 -0.11083776 -0.06849188 0.0015675296 0.011667219 0.095064625
-0.11192108 -0.086958244 0.098898135 0.048210796 -0.09176377 0.0760956 0.053516515 -0.032904707
-0.062601104 -0.06914538 -0.05032342 0.09893388 -0.023757052 -0.039528675 -0.051598255 0.06743379
0.057151187 0.094961375 0.07812494 -0.094501175 0.087370835 0.002603873 -0.004141327 0.033336163
0.0039712833 -0.040588945 0.08051651 -0.07521709 0.025006501 -0.025488459 -0.00041733336 -0.0028436002
0.030155169 0.06865165 -0.012941565 0.053307332 -0.008868544 -0.01534295 -0.12274496 0.022982448
-0.026418675 0.026582511 -0.039093684 -0.07099334 -0.08672228 -0.025318818 -0.014377829 0.06487695
-0.09573367 0.06690023 -0.04709955 0.031102598 -0.09607356 -0.034323074 0.02908191 -0.078165114
0.069271244 -0.13758124 -0.13127328 -0.03556486 -0.094112605 0.0682477 -0.09562169 -0.040803667
0.052097958 -0.027834676 0.016915023 0.07000562 -0.07742306 0.04332602 0.044973318 0.089246295
-0.12875384 0.12940241 -0.10031571 0.08353097 -0.002947201 -0.10675972 -0.02613271 -0.04877046
0.012786551 0.0023295118 -0.10554564 0.06686373 0.13622075 -0.1448156 -0.06753224 0.077648446
-0.049724746 -0.05921805 -0.016095368 0.11641724 -0.15784416 -0.06960948 0.01321004 0.07761985

linear.weight f4 [4, 102]
00000000: 9782 babd 8acd 20be 09b4 963d fa73 01bb
00000010: 3605 3cbc c3ea 95bc 08cb 5f3d 940e de3d
00000020: 6bab 303d fb96 89bd 9b34 c5bc 6d3c 283e
00000030: eaf1 b63c a8a7 833d 2f24 5cbd abc4 8a3d
00000040: de91 eb3d e19c 873c 3d2c 8d3d 4e59 99bd
00000050: 0962 913c d0d8 ae39 ecd1 06be a608 2cbd
00000060: be30 8abe 52ac acbd 42f5 7d3d 58cf 22bd
00000070: c0a1 6d3e 4f21 523d 2401 c1b9 195c ac3c
00000080: 0bf8 673d 0333 f1bd 2725 a5bd 6b9c 23ba
00000090: c289 dbbd 511b 303d bc0f 5dbe da19 f6bd
000000a0: bd8c 563d 1479 fbbd 35fc ecbc ece2 36bd
000000b0: 577f bebc 6dfc 56bd eace 323d 916a 38be
000000c0: df2b 213d 07ce a4bd 955a 64bd afdc dd3d
000000d0: 1754 683d c574 ae3c 6b65 e4bd f3ad 2dbe
000000e0: c28c b4bd 5a1e ef3d 1fcb 24bb ed0b da3d
000000f0: 3c35 723d ff71 393e 0ca8 73bd 48e3 3dbd
00000100: 3978 f9bc adb4 9f3b f65c 4c3c 29a7 a0bd
00000110: d297 8f3d cac6 193d 4cf0 413d ebfb d4bd
00000120: 8eb2 c1bd 8731 25be b229 83bd a2ac 6e3d
00000130: ec84 f5bc d47c c83d bcc8 00be e68a 95bd
00000140: 5086 b8bc 4ce5 0ebd 1bcb 223d 1c0e efbc
00000150: 293c e6bd e736 0cbe caf4 f93d 2628 433d
00000160: 1d4c 3bbe dc82 6f3d 1058 9e3d 604b 1fb9
00000170: ddaa cd3d 594f 413d 457a c93d 6d3e 93bd
00000180: b894 5ebd 1d62 063d fb84 ba3d b78d 54bd
00000190: 4c50 6bbb 3149 d3bd 2e82 d43d 95c1 423e
000001a0: 02ed 1c3d 1de2 b43d 9316 83bd be0d c1bb
000001b0: 4f9c 1e3d d43b 3abc 5365 9eba d71b 113c
000001c0: 7bdc e3bc e04e 58be b6c5 5d3d 1b4f 90bc
000001d0: 2885 d4bd bc0f 2fbe 4cf2 393c 2222 58bd
000001e0: 403f eb3d 2d78 cabd e9de 333e 2c71 f2b9
000001f0: 2880 a33d a698 1ebd 2e76 2a3e ea14 2ebd
00000200: 0d3d 7bbd 1873 883c 9ebf b2bd 7128 93bd
00000210: a50f bebc 585e 6cbd 5818 fb3c 65aa debd
00000220: b11c 833d 1c4c 8cbc b42c bdbd 2cdb 013e
00000230: 5bfe 6a3c c85d 2f3c 98c2 cf3d 4822 a63d
00000240: b2a9 833d 964c c93b 813f 273d bc59 d53c
00000250: e002 cabc bcdd 353e 892d 56bd 9985 b03d
00000260: ef2e 92bd 1de6 51bd 7238 c1bc c945 d3bc
00000270: bbde 033d 4fbe c83d b7a7 5f3d 2557 9ebc
00000280: c051 99bd e4bc 233d 126c 87bd db00 acbd
00000290: 9ecf bf3d bf33 213e 0203 14bd 26d8 23bd
000002a0: 2ebd 883d 30c6 d83c b710 5bbd 9261 e23c
000002b0: e622 7e3d 2bf5 a6bc f768 1d3e faf0 dd3d
000002c0: afe5 4a3d 2bd0 7bbd 27f0 2d3d 00a4 7ebd
000002d0: d430 7abc d64f 0d3c e838 9a3d 128e 693c
000002e0: 8d74 e63d 7a5f 3dbd 29bb 0bbd bd3e 9cbd
000002f0: 9641 8cbc 87a6 833b db7c f93d fb5f d93c
00000300: 5a58 89ba 001e 3abd 676d 08bc 9572 05be
00000310: de0a 9a3d bbce a63d b904 e9bb d025 d93d
00000320: 154d 3e3d f8cd de3b e385 85ba 7f9d a6bc
00000330: 5a38 48bd 5b0c 2dbe bfb4 47bc aba2 ec3c
00000340: c993 0ebd ab24 89bd 1fcc 9e3d 8599 e43d
00000350: 5a52 983d 999b a33d 7500 993c 6ac7 c13d
00000360: 7c00 46bc ba25 1dbd dc61 c43c 2074 c13d
00000370: 4f59 863d 9f93 f23d c7b6 8f3d 5046 7e3d
00000380: 2715 40bd 3305 8c3d 9765 143d 5c5a 393d
00000390: 4bad ba3d c053 5e3c 2bd7 21be e8ad b73d
000003a0: d9d5 57bd b79f e9bd 8892 683c 6fa6 ed3c
000003b0: 085e 0abd fc66 d03c 448f 26bd f074 4cbd
000003c0: 0ee1 ec3b 53a5 36be 4983 b33d c287 86bd
000003d0: 435c 87bb ec95 da3d 386d 113d 9c6c c33c
000003e0: 05dd 0b3d fadf 0dbe 4f84 04be b261 a33c
000003f0: e346 94bd 92aa 1d3c 2269 703d 1e03 bfbd
-0.09106939 -0.15703407 0.07358558 -0.0019752965 -0.011475852 -0.01830042 0.054636985 0.10842624
0.043132227 -0.0671825 -0.024072936 0.164293 0.02233215 0.06428462 -0.053745445 0.06775793
0.11502431 0.016554298 0.068932034 -0.07487737 0.017746942 0.00033349404 -0.13166016 -0.042000435
-0.26990312 -0.08431305 0.062001474 -0.03974852 0.23206234 0.051301297 -0.00036812678 0.02104001
0.056633037 -0.11777308 -0.08063727 -0.00062412646 -0.107196346 0.0429948 -0.21588033 -0.120166495
0.052380312 -0.12278953 -0.028928855 -0.044650003 -0.02325408 -0.052486826 0.04365436 -0.18009402
0.03934848 -0.08047109 -0.05575045 0.10833108 0.05672082 0.021295914 -0.111521564 -0.16960888
-0.0881591 0.11675711 -0.0025145484 0.10646806 0.0591328 0.18109892 -0.059486434 -0.04635933
-0.030452834 0.004873833 0.0124733355 -0.07844383 0.07011379 0.037543096 0.047348306 -0.10399612
-0.09457885 -0.16132174 -0.06404437 0.058270104 -0.029970609 0.09789434 -0.12576574 -0.073018834
-0.022524983 -0.034886643 0.039744478 -0.029181533 -0.112419434 -0.13692819 0.12204893 0.04764571
-0.18290754 0.058474407 0.0773164 -0.00015191501 0.10042355 0.047194812 0.09837774 -0.07189641
-0.054341048 0.032808412 0.09107395 -0.051892962 -0.0035906015 -0.103166945 0.10376392 0.19019158
0.038311966 0.0883219 -0.0640079 -0.005891531 0.038723286 -0.011366803 -0.001208464 0.008856735
-0.027815094 -0.21123838 0.05414363 -0.017615845 -0.1037696 -0.17095846 0.011349272 -0.052766927
0.11486673 -0.09886203 0.17565502 -0.00046242157 0.07983428 -0.038719796 0.16646644 -0.042500414
-0.06133752 0.016656443 -0.08727954 -0.07185448 -0.02320082 -0.05770716 0.030651256 -0.10872344
0.06401957 -0.017126136 -0.09237042 0.12681264 0.01434287 0.010703512 0.10144538 0.081120074
0.06428851 0.006143163 0.040832046 0.026043765 -0.024659574 0.17760366 -0.05228952 0.08619232
-0.07137858 -0.051244844 -0.023586486 -0.025790112 0.032194834 0.098019235 0.054603305 -0.019328663
-0.07486296 0.039975062 -0.0661241 -0.08398601 0.09365772 0.15742396 -0.03613568 -0.040001057
0.06676708 0.02646169 -0.053482737 0.027634416 0.062045 -0.020380577 0.15372072 0.10836978
0.04953545 -0.06147782 0.042465355 -0.06216812 -0.015270431 0.008624991 0.07530385 0.014255064
0.11252699 -0.04623363 -0.034114037 -0.07629154 -0.017121118 0.0040176543 0.121820174 0.026535025
-0.0010478601 -0.045438766 -0.008326865 -0.13031991 0.07521604 0.081448995 -0.0071111587 0.10602915
0.04646023 0.0067994557 -0.0010186996 -0.020338772 -0.048881866 -0.16899244 -0.012189089 0.02888616
-0.034808908 -0.06696447 0.07753777 0.11162094 0.07437582 0.07988662 0.018676976 0.09461863
-0.012085076 -0.038366057 0.023972444 0.09445977 0.06560003 0.11844563 0.07017284 0.062078774
-0.046895172 0.06836929 0.036229696 0.04525219 0.09115084 0.013569772 -0.15804736 0.08968717
-0.052694175 -0.11407416 0.014195092 0.029010026 -0.03378108 0.025439732 -0.040663972 -0.049916208
0.007228977 -0.17836504 0.08765275 -0.065688625 -0.0041308715 0.106731266 0.03550455 0.0238555
0.034146328 -0.13854972 -0.12941097 0.019944046 -0.07240083 0.009623187 0.058694012 -0.093267664

linear.bias f4 [4]
00000000: 5cce 3f3d e420 003e 3259 08bd b63e fdbc
0.04682766 0.12512547 -0.03328819 -0.030913692
